FactorizePhys/final_model_release/UBFC-rPPG_FactorizePhys_FSAM.pth (torch, 219885 bytes, 16 tensors)

module.rppg_feature_extractor.FeatureExtractor.0.conv_block_3d.0.weight f4 [8, 3, 3, 3, 3]
000000 02 47 9c bd 6d 85 9f 3d e4 19 2b bd 85 d9 44 3c
       -0.07630731 0.07789121 -0.041772738 0.012014751
000010 15 fb 2e 3d 12 63 7e 3d fa 62 c6 bc ef 4c 99 bd
       0.04271992 0.0621062 -0.024217118 -0.07485377
000020 5d 47 3e bd 16 39 8e bd cd 8a 87 bd 12 b7 71 3d
       -0.046454776 -0.06944482 -0.06618271 0.05901248
000030 89 b4 76 3d b4 0d 77 3d 9d ba bb bc 03 f2 cb 3d
       0.060230765 0.060315803 -0.022916133 0.099582694
000040 fa 5d ec 3d 4b e9 83 3d f3 78 87 bd a3 4d 28 bd
       0.11541362 0.064409815 -0.06614866 -0.041089665
000050 f5 f1 84 bd 16 c8 8d 3d 7c fc 09 3c b5 83 d2 3d
       -0.06491462 0.06922929 0.008422013 0.102790274
000060 a0 0f 80 bc 28 04 bc 3d ec d8 70 3d 1d e3 ce bc
       -0.01563245 0.0918048 0.058800623 -0.02525478
000070 32 5d 94 bd 86 fa be 3c 24 99 a8 bc ba a5 b5 bd
       -0.07244338 0.023312818 -0.020580836 -0.088695005
000080 7b 51 12 3d d0 f3 9a bc 94 6b fb bd 37 73 8e bd
       0.035722237 -0.018915087 -0.12276378 -0.06955569
000090 fa dd b2 3d 32 1d 1c 3d fd 3d b7 bd f9 3f 8b 3d
       0.08733745 0.03811378 -0.0894737 0.06799311
0000a0 59 b6 07 bd e7 e8 f9 bd f8 dd 94 3c 9c 85 6f bd
       -0.033132885 -0.12202626 0.01817225 -0.05847703
0000b0 70 ec 82 bd 46 2d 69 bc 2e c9 f0 bd 61 a6 81 bc
       -0.06392753 -0.014231985 -0.11757122 -0.015826406
0000c0 38 28 9a 3d 90 d3 b5 3b 45 c0 0e bd 04 b3 0d 3d
       0.07527202 0.005548902 -0.03485133 0.03459455
0000d0 57 1b ce bc 5b f5 36 bd 50 7a 0d 3d 26 2c b7 3c
       -0.025159521 -0.044667583 0.034540474 0.022359919
0000e0 af 4a 36 3d 1f f4 b7 bc ad 00 bf 3d 77 47 b3 3d
       0.044504818 -0.022455273 0.09326301 0.08753865
0000f0 ef b3 0d 3b dc 5b 9a 3d ac 24 44 3d 96 bc d9 3d
       0.0021622141 0.07537052 0.047886536 0.10631673
000100 b6 d0 d8 3d 0d 9d 97 3d 94 ce ac 3d 0f 24 c6 3c
       0.105866835 0.07403002 0.08437839 0.024187116
000110 1c 9f a1 bc 85 aa f3 bc df 55 e0 3d 4a 32 80 3d
       -0.01972919 -0.029744396 0.109538786 0.06259592
000120 e2 ee a6 bd 8a dc 10 3d ba d6 f0 bc 43 a9 b7 bd
       -0.08151032 0.035366572 -0.029399265 -0.08967831
000130 9d c0 e6 3d 43 2e 29 3c ae ab 73 3d b3 e8 b0 3b
       0.11267207 0.010325971 0.0594899 0.0053988337
000140 2f b9 a5 bd 84 0e a4 3d 05 df 55 bd 9c 1f f6 bd
       -0.080919616 0.08010581 -0.05221464 -0.12017748
000150 6b c7 c1 3d a4 3c 45 bd 26 7e 66 bd 9a bb b1 3d
       0.09461864 -0.048153535 -0.05627265 0.0867836
000160 80 61 70 3d 3b 4d 96 bd 89 a8 6f bb c5 d3 50 bd
       0.058686733 -0.07338949 -0.003656896 -0.05098321
000170 02 e8 b6 3d b5 18 cb bd 91 9c 82 bd f8 17 1c bd
       0.08930971 -0.09916822 -0.06377519 -0.038108796
000180 29 66 8b bd 16 fd bf 3d 78 85 63 bd 2f a8 47 bd
       -0.06806595 0.09374444 -0.055547208 -0.048744377
000190 5d 33 20 3c c4 e0 ff bc 90 54 d7 bc b4 c4 28 bd
       0.009777871 -0.031235106 -0.02628544 -0.041203216
0001a0 4c ff f1 bd 43 33 8b 3d c5 88 68 bd e1 11 81 3c
       -0.11816272 0.06796887 -0.05677106 0.015755596
0001b0 57 e6 de 3d 9a 3d 92 3d 07 f4 74 bd 52 c7 1e 3d
       0.108837776 0.07140656 -0.059803035 0.038764305
0001c0 70 ec 73 3d 0d 3b b1 3d a3 2f e3 3d 65 1c 03 3e
       0.059551656 0.08653841 0.1109307 0.128038
0001d0 f8 92 aa 3c dd 77 e8 3d ba 21 c8 bb 3e af 3e bd
       0.020822033 0.11350987 -0.006107536 -0.046553843
0001e0 ac 5d e9 bc 51 61 f1 3d ad 6c 8c 3d 13 f6 15 3d
       -0.028487049 0.1178614 0.06856666 0.036611628
0001f0 cf d1 33 bd c7 65 55 bd 92 d0 67 3c 4f b0 04 3d
       -0.04390126 -0.052099016 0.014148848 0.032394703
000200 39 b5 95 bd bc f3 b7 3d 6f a7 00 bd 59 23 d2 bc
       -0.07309956 0.089820355 -0.031409677 -0.02565162
000210 a6 c7 80 bd 6f 94 de 3c d7 49 10 bd 75 fc b8 3d
       -0.0628808 0.027170388 -0.03522667 0.09032527
000220 be 27 c8 3d a5 a4 42 3c b5 09 1e bd b2 02 bd 3d
       0.09773205 0.011880075 -0.038583476 0.0922903
000230 43 64 9a 3d 17 7e c5 3d bc eb ad bd 23 8c 59 bc
       0.07538655 0.0964319 -0.084922284 -0.01327804
000240 b2 1d 8b bc 18 b2 ff bc 6f 76 4b bc 99 4b 0b bc
       -0.016981933 -0.031212851 -0.0124183735 -0.008501911
000250 38 5d d6 3d 82 d6 f9 bd 99 4b e7 bd 8a 7b d5 bc
       0.10466999 -0.12199117 -0.11293716 -0.026059885
000260 f5 99 a0 bd f2 44 1f bc 65 aa 99 bd 7f 75 c9 bd
       -0.07841865 -0.009721028 -0.07503203 -0.09836864
000270 c4 52 0a bb 56 6e 1c bd fd 39 ca 3c ee 40 3d 3d
       -0.002110646 -0.038191162 0.024685854 0.0462045
000280 7c 42 62 bd 0f e2 69 3d 94 b3 2f 3d 6a 34 14 bd
       -0.055239186 0.057100352 0.04289587 -0.0361828
000290 91 b1 72 bd b6 55 1c bd 54 b3 bf 3d 79 cc 80 bd
       -0.05925137 -0.038167678 0.09360376 -0.06289
0002a0 58 6a 9f bd c5 fc a7 bd 65 af b4 3d 9a 44 47 3d
       -0.07783955 -0.08202509 0.08822516 0.048649408
0002b0 55 d5 98 bd 28 38 cd 3d 96 5e b9 bd b8 10 ff bd
       -0.07462565 0.100204766 -0.09051244 -0.12454361
0002c0 20 7f c3 bd b9 58 4a 3d 46 a7 68 bd 19 15 6e bd
       -0.095457315 0.04940102 -0.05680015 -0.05812559
0002d0 5b 48 b0 bc 10 ca 89 bd a8 f9 cf 3d a7 c1 9d bb
       -0.021518877 -0.067279935 0.1015504 -0.004814345
0002e0 e5 1f 16 bd 01 cd c9 3d fc be ce bd f0 77 52 bd
       -0.03665151 0.098535545 -0.10095021 -0.051383913
0002f0 cf 29 c5 3d d6 ae b7 bd de 1c c6 3c 94 03 95 bd
       0.09627115 -0.08968894 0.024183687 -0.07276073
000300 8e 07 d7 bd b7 bc 80 bd bd 91 bd bd 38 fb 4b bd
       -0.10499488 -0.062859945 -0.09256313 -0.049800128
000310 19 f8 a3 bd 36 33 50 bd df 26 4c bd 77 f6 ad bd
       -0.08006305 -0.05083009 -0.049841758 -0.08494275
000320 9c 41 ad bd 7b 61 1c bd 4e a5 e9 bc 64 f8 88 bd
       -0.084597796 -0.038178902 -0.028521206 -0.06688002
000330 70 db cb bd 9c b2 6d 3d 89 41 fd bd 60 1f aa 3d
       -0.09953964 0.058031663 -0.123660155 0.083067656
000340 a7 24 fa 3b 1a 71 3b bd d5 f9 ef bd d3 10 42 3a
       0.007633764 -0.04576216 -0.117175736 0.00074030197
000350 88 2d d6 bd 7d 09 5b 3d 70 0f 94 bc 76 8c df bd
       -0.10457903 0.053475846 -0.018073767 -0.10915463
000360 9b 3f f0 3d fd c3 ae 3c 9b 1a 65 3d 0b bc ab 3b
       0.11730882 0.021333689 0.055933576 0.0052409223
000370 98 ae b5 3d ad ba 1b bd 21 de 86 bd 9a fc 8a 3d
       0.08871192 -0.038019825 -0.065853365 0.06786461
000380 fc 70 11 3c 0c 36 11 3d 6b 12 c1 bd 2f 29 3d 3d
       0.008877035 0.035451934 -0.09427341 0.046181854
000390 ba 43 dd bd 28 aa b0 bc 4d 0e 55 bd 3f ae a4 bd
       -0.108039334 -0.021565512 -0.05201559 -0.08041047
0003a0 f8 68 32 3d 0f fd f9 bc ad d6 21 3d 56 46 b9 bd
       0.043557137 -0.030516176 0.03951137 -0.09046619
0003b0 b0 5a bf 3d 3c 06 c3 bd e4 5e 5b bd 6e 6c 6e bd
       0.09343469 -0.095226735 -0.05355729 -0.058208875
0003c0 1e 14 a1 bd 4d 55 1b 3d e0 a8 c5 bc 10 9a 03 3d
       -0.07865165 0.037923146 -0.024128377 0.032129347
0003d0 38 c1 09 3d 64 b4 c1 3d 8f a2 43 bd 13 cb 06 bd
       0.033631533 0.09458235 -0.04776245 -0.03290851
0003e0 f6 d0 09 be 67 c7 00 bd c1 5f c5 3d e6 d9 dc bd
       -0.13458619 -0.031440165 0.09637404 -0.10783748
0003f0 43 a7 90 bd 66 93 a1 3d ab 8a 5d 3d 33 e2 b3 3d
       -0.07063153 0.07889442 0.054087322 0.087833785

module.rppg_feature_extractor.FeatureExtractor.1.conv_block_3d.0.weight f4 [12, 8, 3, 3, 3]
000000 c4 d6 77 bd 1e 34 8b 3c bd 0d 6e 3d e2 d7 3a bd
       -0.06050755 0.016992625 0.05811857 -0.04561604
000010 cc 09 63 3c 44 e9 82 3c bd eb 29 bc 2f c4 15 3d
       0.013857316 0.01598037 -0.010371146 0.03656405
000020 ea c6 a1 bd b0 6e 72 bb d7 8e 29 bd 9f fe 8b bd
       -0.07899268 -0.0036992244 -0.04139599 -0.068356745
000030 75 ee 26 3b 24 0a a8 bd 9c ab 92 3c 23 c3 5b 3a
       0.0025471721 -0.08205059 0.017904095 0.00083832646
000040 bf 7d 66 3c 02 40 22 3c 1f 2a 54 3d 4c 86 88 bc
       0.014068066 0.009902956 0.051797982 -0.0166656
000050 be 48 8e 3c 19 17 2d bd 90 24 8e 3d 69 16 49 bd
       0.01736867 -0.042258356 0.069405675 -0.049093638
000060 e2 74 38 bd 0b f8 81 3d 17 18 c1 bc 19 4b 2a 3d
       -0.045033343 0.063461386 -0.023571057 0.041575525
000070 e7 80 69 bc 47 b3 3b 3d a5 9e 83 bd f5 53 c1 bc
       -0.014251924 0.04582527 -0.064267434 -0.023599604
000080 8b e4 50 3c 26 30 9a bb e1 c1 28 bd f8 de 3f bd
       0.012749801 -0.004705447 -0.041200522 -0.0468435
000090 05 4d e1 bb dc 00 15 3d fd 39 30 bd e4 de 33 bd
       -0.0068756365 0.036377773 -0.043024052 -0.043913737
0000a0 f6 38 92 3c 7f 62 32 3d b6 26 6d 3c c3 b6 f7 3b
       0.017849427 0.043550964 0.014474561 0.0075596287
0000b0 76 6e 2e 3d 55 a5 47 3d af c4 c3 39 f5 88 d9 3c
       0.042585813 0.048741657 0.0003733984 0.026554564
0000c0 af ef 01 bd d7 01 0a 3c 83 da 00 3b 6f e5 fa 3c
       -0.03172272 0.00842329 0.0019661493 0.03062698
0000d0 be 83 5a 3c 28 92 90 bb 66 b0 68 3d 98 5b 2b 3c
       0.013337074 -0.0044119544 0.05680885 0.010458849
0000e0 c6 1b 65 bd 28 aa 9c bc 91 27 1b bd a9 18 9d bd
       -0.05593469 -0.019124106 -0.03787953 -0.07670719
0000f0 ba 42 c6 bb a1 53 f0 bb 73 d0 65 bc 87 74 53 bd
       -0.006050435 -0.007334188 -0.014026749 -0.0516248
000100 80 6c 48 bd cd de 09 bd d5 fe 87 bd ea f1 47 3d
       -0.0489316 -0.033659745 -0.06640402 0.04881469
000110 d6 5d 42 3d ac 45 2f 3d 51 e6 6c bd b2 cc 7a bd
       0.04745277 0.042791054 -0.057836834 -0.06123037
000120 ef 97 b0 ba 14 2c 00 bd 2f 7e 25 bd 6e d3 6c 3d
       -0.0013473014 -0.031292036 -0.04040354 0.057818823
000130 cd 9c 3d 3d 38 d1 00 ba ef d3 5b bc f3 43 6d 3d
       0.046292115 -0.00049139885 -0.013417228 0.05792613
000140 e6 d6 9a bc c7 d8 6a bd 65 1d c4 3c 0e fb 38 3d
       -0.0189013 -0.05733564 0.023939798 0.0451613
000150 a6 a9 8b 3d c0 2a 71 3d 57 84 be 3b fd 9d 34 3d
       0.06819467 0.05887866 0.005814116 0.044095982
000160 7e fa d5 3b 78 5d d0 3c 93 62 21 3d bb 3c 4d bd
       0.006530105 0.025435194 0.03940065 -0.050106745
000170 7a dc 37 3d 1f 71 03 3d 99 6d dc 3b 17 8c 76 bb
       0.044887997 0.032090303 0.0067269322 -0.003762012
000180 f3 b1 69 bd 25 32 58 3c 09 60 14 bd 08 66 77 b9
       -0.05705447 0.013195549 -0.0362244 -0.00023593765
000190 f9 b0 69 3d a2 3b ad bb 02 db b6 3c 8e 6e 74 3d
       0.05705354 -0.00528665 0.022321228 0.059675746
0001a0 8f 1f 9c 39 4b de 36 bd de 1b 58 3c d6 8a 39 3d
       0.00029778152 -0.04464559 0.013190238 0.04529842
0001b0 41 43 92 bd 2c 92 89 3c 9b f7 b4 3c 16 52 39 bd
       -0.07141734 0.016793333 0.022090724 -0.0452443
0001c0 dd fb 15 bc 21 76 5c bd d6 11 12 3d c4 cb 24 3d
       -0.009154287 -0.053823594 0.03566154 0.04023339
0001d0 d3 69 9f bd a5 30 a9 bc 89 85 15 3d fa 5f 5c bc
       -0.07783856 -0.020653078 0.036504302 -0.013450617
0001e0 d5 33 25 bc 95 4a 40 bd b2 d9 f8 bb e7 ac 18 3d
       -0.0100831585 -0.046946127 -0.0075943107 0.037274268
0001f0 ac 6d e6 3b 17 43 0f bd b2 2e c8 bc b5 13 f6 bc
       0.007032117 -0.03497609 -0.024436329 -0.030038694
000200 7f be 29 bd b8 42 12 bd 7a cd cc 3c fd bb 49 3c
       -0.041441437 -0.03570816 0.025000323 0.012312886
000210 a9 67 cf bc f6 9b 77 3d 0a a7 bd bc 23 0c 36 bc
       -0.025317984 0.06045147 -0.02315094 -0.011111292
000220 5c e5 5a bd b1 70 13 bd 06 3e 17 3d 25 a9 0c 3c
       -0.05344139 -0.035996143 0.036924385 0.008585249
000230 8a c2 41 3c fa 2e 54 3d 6d 27 5d 3d 5a a5 2f bd
       0.011826167 0.051802613 0.053992677 -0.0428823
000240 3e d9 00 bd cc 85 38 3d f0 87 80 bd ee fe 54 bd
       -0.03145718 0.045049474 -0.06275928 -0.052000932
000250 27 a3 2e bc da 11 a8 bb c2 e2 81 bc af 24 18 3d
       -0.010659016 -0.005129081 -0.015855197 0.03714436
000260 34 e5 1b bc ed 35 45 bc 56 18 31 bd 82 15 c8 b8
       -0.0095150955 -0.012036783 -0.0432361 -9.540749e-05
000270 f3 45 1d 3d a0 5a b2 bc fa 7e 97 bd 44 85 99 3c
       0.038396787 -0.021771729 -0.07397266 0.018740304
000280 26 09 07 bc 90 76 02 3d 49 72 91 bc 87 c6 8e 3d
       -0.008241927 0.03185135 -0.01775469 0.0697146
000290 fc 16 43 bc 53 27 aa 3c 7c 7c 68 3d 92 4c 9c 3d
       -0.011907335 0.020770704 0.056759343 0.07631792
0002a0 ab ba ff 39 35 21 92 3d 53 3e a6 bc 43 8f 45 bc
       0.0004877647 0.0713524 -0.02029339 -0.012058082
0002b0 1a 20 96 3d c3 cc 4a bc db ee 7c 3d 0f 1e 38 3d
       0.07330342 -0.012377921 0.061751228 0.04495054
0002c0 cf 22 9a 3c ca 3b 18 bd bb ef 72 bd 11 e1 39 3c
       0.018815426 -0.037166394 -0.059310656 0.011345164
0002d0 df 2b 98 3d 9a 67 2f 3d 44 a1 84 bc 56 42 fc bc
       0.07430243 0.04282341 -0.016190179 -0.03079335
0002e0 35 bf f3 3c d8 75 1e 3d 20 11 30 3d 5a 84 01 bd
       0.02975426 0.038686603 0.04298508 -0.03162036
0002f0 ff cf 74 3d 64 76 1f bc 16 9a d1 3c e6 29 5f 3d
       0.059768673 -0.009732816 0.02558617 0.054483317
000300 fe 1a f7 3c 30 31 3a bd ab 97 01 3c 79 79 93 3c
       0.030164238 -0.045457065 0.007909696 0.018002259
000310 b5 07 c7 3b cd ba 87 bb 31 55 b9 bc f8 05 55 bd
       0.006073917 -0.0041421414 -0.02262363 -0.052007645
000320 8f 30 db bc 0e ed 7d b9 c5 61 6a 3d 45 12 32 3d
       -0.026756553 -0.0002421627 0.057222147 0.043474454
000330 9b 57 6d bc fb a9 04 bd 7e 6b 26 bc 74 cf 11 bd
       -0.014486219 -0.03238867 -0.010157464 -0.035598233
000340 51 75 3b bc 8a c0 80 3c 1b a8 62 bd cc 8b be bc
       -0.011441545 0.01571681 -0.0553361 -0.02326002
000350 91 b5 be 3c 83 7e e1 3c dd 53 6b 3d 83 02 63 3d
       0.023279937 0.027526146 0.057453025 0.055422317
000360 e0 4a 9a bb db e5 7f bd 3f e3 ce 3c ea ce 54 bc
       -0.004708633 -0.062475067 0.025254844 -0.012988785
000370 ce 65 31 3d 12 23 b9 3c d4 72 eb bc 74 4a a9 3d
       0.04330998 0.02259973 -0.028741278 0.08266154
000380 3f ad a6 bb 91 e1 b3 bc 46 1c 08 3d 54 5a dc 3b
       -0.0050865705 -0.021958144 0.03323009 0.006724635
000390 bd c7 44 bd 97 3e a6 3c 0d fa 87 3d b7 0f a1 3c
       -0.048042048 0.020293517 0.0663949 0.019660814
0003a0 1b 1a 99 3c 1b 11 c5 bb 02 3a 73 3d 98 70 32 bd
       0.018689206 -0.006014002 0.059381492 -0.04356441
0003b0 2d 42 1a 3d 7a 7d 66 3b bc c6 4d bd b8 77 9f 3c
       0.037660766 0.0035170005 -0.050238356 0.019466266
0003c0 8c 82 81 3c 13 e0 59 3c a1 a9 37 bd 21 e3 3a bd
       0.01580932 0.013298052 -0.044839505 -0.045626763
0003d0 45 64 b8 bc 6d a2 89 bc ee 22 81 3d 89 97 d8 bc
       -0.02250875 -0.016801083 0.063054904 -0.026439445
0003e0 c4 54 05 3d 65 4f d9 bc 5d 42 f3 bc 7a 61 00 bd
       0.032551542 -0.026527116 -0.02969473 -0.03134296
0003f0 34 e8 c3 bc 02 66 3d bd c4 54 61 3d 26 67 7a 3d
       -0.023914434 -0.04623986 0.05501248 0.061133526

module.rppg_feature_extractor.FeatureExtractor.2.conv_block_3d.0.weight f4 [12, 12, 3, 3, 3]
000000 51 b9 a5 bc 5c db 3c 3c 75 1c ad 3c e2 6d 69 3d
       -0.020229967 0.011526909 0.021131733 0.056989558
000010 d2 95 c1 3c d1 1c 37 3d 93 ff 98 3c 4a ca 21 3d
       0.02363101 0.044705216 0.018676555 0.03949956
000020 e7 87 1c 3b 82 eb 27 3d 7f 18 a7 3c 25 6e 80 3c
       0.0023884715 0.040996082 0.020397423 0.015677521
000030 70 c2 ef 3c 6b 0e 77 3d 90 6b f1 3c 8d 72 37 bc
       0.02926752 0.060316484 0.029470235 -0.011196745
000040 72 d5 03 3d 8d 5c 76 3d 8e b4 a3 3c 70 55 91 3c
       0.03218598 0.060146857 0.019983556 0.017740935
000050 2b 76 5c 3b a1 4a 36 3d 6b 62 15 bc 27 a4 df 3c
       0.003363977 0.044504765 -0.009117703 0.027299954
000060 f8 c1 ca bc 84 8e bb bc f8 fa 63 ba 6f 33 64 3d
       -0.024750695 -0.022895105 -0.000869676 0.055713113
000070 05 27 34 39 03 29 41 bd 17 0f 03 3d 6f 7c 85 3c
       0.00017180674 -0.047158252 0.031996813 0.016294686
000080 fe 55 80 3d 56 89 c9 3c c3 36 46 bd 4b cd 3c bd
       0.06266402 0.02460162 -0.04839207 -0.04609422
000090 99 03 b9 bb 1b 6b 17 3b 41 97 6f 3b 5d 47 94 3c
       -0.005646181 0.0023104611 0.003655866 0.018100435
0000a0 fa 89 89 bc a0 94 8b 3c 86 51 ec bc 8f d0 52 bc
       -0.016789425 0.017038643 -0.028847467 -0.012867107
0000b0 92 c9 07 bd f4 ab 6c bd 53 e2 20 bd a6 f3 19 3d
       -0.033151217 -0.057781175 -0.03927834 0.037585877
0000c0 a3 0e 34 3d 71 2e d6 3c a7 d6 3b 3d 29 33 67 bd
       0.04395927 0.026145192 0.045859005 -0.056445275
0000d0 29 c4 e3 bb 1c 82 9e 3c 88 e9 14 3d fc 4b 39 3c
       -0.0069508743 0.01934915 0.036355525 0.01130962
0000e0 7d 96 88 3b a1 2f 24 bd 98 cd fc bc f7 8a 53 bc
       0.00416833 -0.040084485 -0.030859753 -0.01291155
0000f0 f6 5e 18 3d 5c c6 62 bd 16 e1 a5 bc 34 00 3a bd
       0.037199937 -0.05536495 -0.02024893 -0.04541035
000100 f9 9c 55 3d 07 2f 52 3d fb 08 96 bb f5 84 e9 bc
       0.052151654 0.05131438 -0.0045787073 -0.028505782
000110 fa 6f c9 3c 96 50 07 bd 3d c6 bd 3c 13 0d c3 bc
       0.024589527 -0.033035837 0.023165816 -0.023809945
000120 6f 78 b1 bc 7a 07 da 3a b4 4a 21 bd 14 65 9a 3c
       -0.021663873 0.0016634308 -0.039377883 0.018847026
000130 3b a6 16 3c dc f0 fd bc 30 45 da bc 74 8b 4a bd
       0.009194906 -0.03099864 -0.02664432 -0.0494494
000140 ee c3 a9 3c 65 a6 5e bb 03 15 3c bd 86 61 f9 3b
       0.02072331 -0.003397369 -0.045918476 0.0076105027
000150 20 23 ce bb 17 46 b4 bb 7e e6 38 bd d3 66 76 3b
       -0.0062908083 -0.0055015194 -0.04514169 0.003759791
000160 89 3d a9 3a b4 92 34 bc 83 71 58 3d bc 48 86 3d
       0.0012912016 -0.011021305 0.05284263 0.06556842
000170 c5 b7 85 3c 9f 20 37 bd 61 3a 18 3d 31 5f d9 bc
       0.01632298 -0.044708844 0.03716505 -0.026534649
000180 65 06 0d bd 45 28 3b bd 29 67 5c 3d 0d b2 67 3d
       -0.034429926 -0.0456927 0.05380932 0.056566287
000190 0e d3 b6 3c 16 c3 1f 3d 5b 1b 43 bd 7d c5 4f 3d
       0.022317436 0.039004408 -0.04763351 0.05072545
0001a0 2a 62 f4 bc d7 5f 20 bd 4a 55 0b 3d 28 44 4b bd
       -0.029831965 -0.0391539 0.034016885 -0.049625546
0001b0 4c 43 f4 bc 91 50 30 bd 73 28 9a 3b d9 5f b7 3b
       -0.029817246 -0.043045584 0.004704529 0.0055961427
0001c0 a4 93 f4 bc 88 c2 b8 bc 83 d1 80 bc bd 5b c9 3c
       -0.029855557 -0.022553697 -0.015724903 0.024579877
0001d0 e9 3f 71 3c f1 fd 83 3c 01 31 30 bd 93 1a 98 3c
       0.01472471 0.0161123 -0.043015484 0.01856736
0001e0 a3 ad fd bc fb 6c 78 bc 29 b4 8b bd c0 76 0f bd
       -0.030966586 -0.015162702 -0.06821472 -0.03502536
0001f0 c7 f9 13 3d b3 c2 ae bc 2f 6b 69 bc 5a cb 81 3c
       0.036126878 -0.021333074 -0.014246746 0.015844036
000200 7e ec 6a bd 9d c0 a8 bb 98 b3 0d 3c 68 a1 17 3d
       -0.057354443 -0.0051499144 0.0086487755 0.037019163
000210 d3 3e a0 bc 16 49 1c 3d 68 96 06 bd 33 0c 70 bc
       -0.019561207 0.038155638 -0.032858282 -0.014651346
000220 dc a6 2d 3d 38 e2 de bb 25 fd 41 3c 40 5d 83 3d
       0.042395458 -0.0068018697 0.0118401395 0.064142704
000230 07 ff 34 bd e4 f9 1c bd a2 b6 9e bc 76 b3 00 3d
       -0.044188526 -0.03832425 -0.019374195 0.031421147
000240 ff 69 c5 bc 7c 03 e3 bc e0 0c 24 3c e0 6d 75 3d
       -0.024098394 -0.027711622 0.010012835 0.059919238
000250 e8 05 0e 3d 8e c4 33 3c 06 d1 b0 3c 49 e4 0c bd
       0.0346736 0.010972155 0.021584045 -0.034397397
000260 c8 61 b2 3c fa 31 d7 3b f7 9c 69 3c 91 c5 9e bc
       0.021775141 0.006567237 0.014258615 -0.019381316
000270 0e 37 89 bc 06 5d 70 bc be 3c 1e bc 1f cc a1 bc
       -0.016749885 -0.014670616 -0.009658037 -0.019750653
000280 0d 02 19 3d f1 f2 3c 3d 99 cc 35 ba 05 69 bb 3a
       0.03735547 0.046130124 -0.00069350895 0.0014298266
000290 ff b3 10 bd c9 ba 0d 3d 41 00 39 3d 0b 17 93 bc
       -0.035327908 0.03460196 0.045166258 -0.017955324
0002a0 3a 87 42 ba 14 71 3c bd d9 ac e1 3c da a7 33 3d
       -0.0007420663 -0.046006277 0.02754824 0.043861248
0002b0 e3 e9 de bc bc e0 a9 bc 14 7f 8f 3c 72 fa 2d bd
       -0.027211135 -0.020737045 0.01751665 -0.04247517
0002c0 fa 1c cc bb d4 b9 3c bc bf 4d 27 3a aa 6c ed bc
       -0.00622904 -0.011518914 0.00063821295 -0.02898248
0002d0 ba f5 8b 3b d0 71 0a bd c6 d0 3d 3d 41 a6 f7 3c
       0.0042712362 -0.033799946 0.04634168 0.030230643
0002e0 81 77 0e 3d e2 0f 2c bd 83 a9 04 bd e4 90 d4 3b
       0.034781937 -0.042007335 -0.03238822 0.006486999
0002f0 3a 31 6d bd d2 29 80 bd 4e 28 20 3d 12 57 31 3d
       -0.057908274 -0.062579766 0.039100938 0.043295927
000300 ea e2 f9 3c 07 b8 66 3d 22 8e d7 bc f8 71 15 3d
       0.030503709 0.056327846 -0.026312891 0.036485642
000310 ac b4 09 3d 52 29 75 3c 8f fb 58 3c bd 11 41 bd
       0.033619568 0.014963465 0.01324357 -0.047136057
000320 96 e0 b7 b8 28 b7 5d 3c a5 5f 4c 3d 87 4b 34 3d
       -8.7679524e-05 0.013532437 0.0498959 0.04401734
000330 37 ae 87 3d e9 0b 28 bd 9f 98 fc 3c 10 f7 a7 3b
       0.06625026 -0.041026983 0.030834494 0.0051258877
000340 34 18 4b bc a8 b2 e5 3c 58 72 f6 bb 84 86 6d 3d
       -0.012395907 0.028039292 -0.007520955 0.057989612
000350 1b aa 3b 3d 72 d3 86 3d 14 99 96 3c 77 44 4c 3d
       0.045816522 0.06583299 0.01838354 0.04986998
000360 c3 04 fa 3c 86 d0 d0 3c 59 18 ab bc c5 37 41 bd
       0.030519849 0.025490057 -0.020885633 -0.047172327
000370 91 dd 22 3d 31 a3 11 bd ec bb 56 bd 92 bb 43 3d
       0.039762083 -0.035556022 -0.05242531 0.047786303
000380 f8 3d ef 3c 90 48 25 3d da 36 80 3c 1a 86 e8 3c
       0.029204354 0.040352404 0.015651155 0.028384257
000390 3b f5 07 bd 09 71 31 3d bd 1b 3c bd 89 64 69 3d
       -0.033192854 0.04332069 -0.04592489 0.056980643
0003a0 0a b5 18 3c e5 b4 0b bd f0 2e f3 3c c4 4f 67 3a
       0.009320507 -0.03410806 0.029685467 0.00088238367
0003b0 ad 9e 68 3d c5 71 49 3a 4b 1f 14 3d 7b 56 bf 3c
       0.05679195 0.00076844945 0.036162656 0.023356667
0003c0 0f 6f 86 bc 5e 93 d2 3b 4c 16 22 3d ed 22 c8 bb
       -0.016410379 0.006426259 0.039572045 -0.006107679
0003d0 a8 33 fe 3b de c9 11 bd 52 b4 a9 3c 62 7f 08 bd
       0.0077576227 -0.035592906 0.020715866 -0.033324607
0003e0 1a fe de bb 76 46 32 bd 0f 63 5e ba fa 17 ee bc
       -0.0068051936 -0.043524228 -0.0008483389 -0.029064167
0003f0 4d 94 07 3d 58 82 0a 3d e0 9b 3e 3d d5 32 e5 3c
       0.033100415 0.03381571 0.046535373 0.02797834

module.rppg_feature_extractor.FeatureExtractor.4.conv_block_3d.0.weight f4 [12, 12, 3, 3, 3]
000000 7a 49 3f 3b 5b 73 2a bd 19 21 33 3d eb d7 55 3c
       0.0029188083 -0.041613918 0.043732736 0.013051967
000010 ba de a7 bc e6 db 8a 3c 5a 53 13 3d 10 77 c4 bc
       -0.020491946 0.016950559 0.035968162 -0.023982555
000020 27 44 f6 3c ad 7d 4a bd 87 19 52 3d 14 e6 04 3d
       0.030061794 -0.04943626 0.051293876 0.032445982
000030 dd 14 5e bd 37 d3 d6 3c 04 9e 26 3d 89 fd 2b bd
       -0.054219116 0.026223762 0.04067804 -0.041989837
000040 59 00 81 bc eb c0 d9 bb 7a 58 3a bd 05 e9 d3 bc
       -0.015747236 -0.006645312 -0.045494534 -0.025867948
000050 c3 d1 c6 bc e2 66 27 bd ba fc 26 bd 1e f3 ba 3c
       -0.024269944 -0.0408696 -0.040768363 0.022821005
000060 f8 6a 61 bd 67 68 3d 3b ab 7f 04 bd 47 9c fd bb
       -0.055033654 0.002890134 -0.032348316 -0.007739577
000070 fe 3e 09 bd e2 15 01 3d af 72 d4 3c 77 a5 17 bd
       -0.03350734 0.03151501 0.025933592 -0.037023034
000080 0b 46 14 bd 29 d0 36 bb 06 7d 89 bd c6 aa cd bb
       -0.03619961 -0.002789507 -0.067132995 -0.0062764613
000090 2b 45 50 bb 21 31 c7 bc cb 04 97 3c 80 f1 67 bd
       -0.0031779509 -0.024315419 0.018434903 -0.056626797
0000a0 18 82 ab bc 56 92 7e 3c 04 47 49 bd 7e c2 9e bc
       -0.020936057 0.015537819 -0.04913999 -0.01937985
0000b0 de 37 c7 bc ff 15 a6 3b 79 7e 6d 3d 07 99 c4 3b
       -0.024318632 0.00506854 0.05798194 0.0059996876
0000c0 1a 70 df 3c eb 40 21 bd b7 b2 c0 bc 7f e1 34 bd
       0.027275134 -0.03936855 -0.023522718 -0.044160362
0000d0 1b de 45 3c 99 9d 61 bc 00 8c a2 3c db 32 bb 3c
       0.01207688 -0.013770484 0.019842148 0.022851398
0000e0 9f 89 41 3d 04 0c 26 bc 21 da 6e 3c 31 ff 2a 3c
       0.047250386 -0.010134701 0.014578373 0.010436819
0000f0 3a 03 ac 3c 56 d5 2f 3d b7 89 1c 3d 33 ae 86 3c
       0.020997632 0.042928062 0.038217273 0.016440487
000100 32 f2 4d bd 1e 56 de 3c 2c db 4c 3c 1c ec 28 bd
       -0.050279804 0.027140673 0.0125034265 -0.041240796
000110 e3 72 64 3d 64 c8 b7 3c 57 27 03 3d 11 74 1f bd
       0.055773627 0.02243442 0.03201994 -0.03892905
000120 6f 9c fd ba 99 21 8a bc 0e 7f 71 bb 98 aa 87 3c
       -0.0019348989 -0.016861724 -0.0036849412 0.016560838
000130 84 b0 6b bd d8 35 26 3c 17 de a4 3c 73 92 2d 3b
       -0.057541385 0.010144673 0.020125432 0.0026484996
000140 40 5f 3e 3d 14 11 51 3d ae 1f f8 bc 17 85 91 bd
       0.046477556 0.051041678 -0.030288544 -0.07105463
000150 e9 a5 db 3c b4 94 00 3d 68 5a 9b 3c f5 8e 7e bb
       0.02681251 0.031391814 0.018964007 -0.0038842533
000160 e0 01 55 3d 35 e7 f4 3c 1e 53 61 3c 9f e7 25 bd
       0.05200374 0.029895404 0.013752727 -0.040504094
000170 47 e8 43 bc 16 51 b6 bc 6d 55 75 3d b7 ae 08 bd
       -0.011957235 -0.022255462 0.05989592 -0.033369746
000180 69 20 9c bc 32 62 06 bd de 95 2c 3c d4 72 2d bd
       -0.019058423 -0.03280849 0.010533778 -0.042345837
000190 05 01 29 3d ff 74 50 bd bc dc f2 bc 78 8c 68 3d
       0.041260738 -0.050892826 -0.02964627 0.056774586
0001a0 9c 1d 1f 3d 23 e4 5f 3b fa f0 9e bc 26 d9 1d 38
       0.038846597 0.003416308 -0.019402016 3.7633952e-05
0001b0 ed 7f 6e bc 95 75 43 3d 27 b5 2b bd d1 3d 41 3d
       -0.014556867 0.047719557 -0.041920807 0.047178093
0001c0 95 ac b7 bc 34 23 dd 3c 01 91 49 bd ac 55 84 3c
       -0.02242116 0.026994325 -0.049210552 0.016154133
0001d0 d4 36 70 bd 6a 9c e3 3c 58 ce 65 3d 73 12 93 bc
       -0.05864604 0.027784545 0.056104988 -0.017953133
0001e0 3d 39 29 3d 5a cc 49 3c 13 5d 52 bd 72 f6 37 bc
       0.041314352 0.012316788 -0.051358294 -0.011228191
0001f0 be ff 28 3d af ed b2 3c de 4f 1a bc bc fb da 3c
       0.04125952 0.021841852 -0.009418456 0.026731364
000200 f9 9c 3a bd 5b ff 35 3d 3a 9b c5 bc cb 53 17 bd
       -0.045559857 0.04443298 -0.02412187 -0.036945146
000210 99 b2 23 bb 6f 63 42 3d 2d dc 28 bd 64 a8 a9 bc
       -0.0024978279 0.04745811 -0.0412256 -0.020710178
000220 0d d8 a5 bc 66 56 28 3d 39 80 24 bd 47 08 28 3d
       -0.020244623 0.04109802 -0.040161345 0.04102352
000230 02 2a 59 bd 5a 04 80 bd 4d 06 88 bb 09 6d ee bc
       -0.053018577 -0.0625083 -0.0041511417 -0.029104726
000240 f4 04 8a bd 0f 6d 12 bb fe b2 91 bc 2f 7b 56 bd
       -0.06739226 -0.0022342836 -0.017785545 -0.05236357
000250 ed 72 7a bd 9e cd 85 3c 9a 59 07 3c 44 2c 0b bd
       -0.061144758 0.016333397 0.008261109 -0.033977762
000260 5d 30 be 3a a6 88 41 3d bd 36 ff bc ff 13 e7 bc
       0.0014510263 0.04724946 -0.031154031 -0.028207777
000270 b3 b6 21 bd 9b da 59 bc 79 ce 3d 3d 1c fa 56 3c
       -0.039480876 -0.0132967485 0.046339486 0.013121154
000280 09 7d 9a b9 8b 28 40 bd 5a 65 ab 3b 35 fc 61 3d
       -0.00029466327 -0.046913665 0.005230588 0.055172164
000290 fa 48 1f bd 21 d2 45 3d 42 d7 24 3d 19 35 c2 bc
       -0.038887955 0.048296098 0.04024435 -0.02370696
0002a0 5c 48 9a 3a bd d1 6c 3d 19 5c 26 3d a7 94 2e bb
       0.0011770832 0.05781721 0.040615175 -0.0026638897
0002b0 ac ab 76 3d c8 08 29 bd c6 0b 2a bc d9 ee 9b b8
       0.060222313 -0.04126814 -0.010378784 -7.435465e-05
0002c0 04 20 04 3b 84 2e dc 3c 42 55 45 bd 4a ff 31 3d
       0.0020160684 0.02687765 -0.04817701 0.043456353
0002d0 6e 09 8b bc 5c 1e e7 3b 93 d9 65 bd 2b d5 47 3c
       -0.01697227 0.0070531797 -0.056115698 0.012196819
0002e0 f2 2e 10 3d 14 06 36 bd 88 c8 db bc f7 20 03 bd
       0.03520102 -0.04443939 -0.02682902 -0.03201386
0002f0 2a 77 22 3c cb 61 07 bd d3 a0 bd 3c 2d 60 b6 3c
       0.009916106 -0.033052247 0.023147976 0.022262657
000300 99 29 84 3c d2 e5 20 3d d8 0c 46 bd 1b 7c 4f bb
       0.016133117 0.039281674 -0.048352093 -0.0031659666
000310 09 ed 9b 3a 0f be 02 bd 0e b9 3a ba 9b 56 48 3c
       0.0011896204 -0.031919535 -0.0007122912 0.01222768
000320 bc d6 43 3d ea 07 09 3d bc 41 9d b9 69 ee 08 3d
       0.04781221 0.033454813 -0.0002999435 0.03343049
000330 fa 64 f1 3c ee 7a a4 bc 51 3c 5f 3d 58 91 90 3c
       0.029467095 -0.020078149 0.05450088 0.01764743
000340 1e 96 38 bc 71 56 14 bd d6 85 30 bd b6 b7 ca 3b
       -0.0112662595 -0.03621525 -0.043096386 0.006186451
000350 ec 98 02 3d 27 8e bc 3c e0 11 a8 3c d0 b1 20 bd
       0.03188412 0.023017002 0.020516336 -0.039232075
000360 7b 99 1d 3d b4 24 a9 bc 5e 17 80 bc 73 08 dd 3b
       0.03847645 -0.020647384 -0.015636142 0.006745392
000370 82 2c fc bc 12 a0 03 bc ec d6 ac bc c1 41 6a bd
       -0.030782942 -0.008033769 -0.021098576 -0.057191614
000380 06 c9 4b bd 76 66 10 bd e6 31 11 bd d2 f7 84 bc
       -0.049752258 -0.035253964 -0.035447977 -0.016231451
000390 ba 9d e3 3c 71 91 53 3c 03 42 ef 3c ed d6 eb bc
       0.02778517 0.012913094 0.029206282 -0.028789008
0003a0 62 53 c4 3c 54 1b 63 bd b5 7e 08 bd 12 b6 69 3d
       0.023965541 -0.055445984 -0.033323962 0.0570584
0003b0 87 31 e8 bc 97 31 61 3c 83 5c fb 3b 42 9d c1 bb
       -0.028343929 0.013744733 0.0076709404 -0.005908639
0003c0 7b 03 2d b9 53 85 2d 3a 61 ee 5f 3d b1 54 a8 3c
       -0.00016499862 0.0006619293 0.054670695 0.020548197
0003d0 f3 90 56 bd 57 67 e5 3b ca 91 5c bc c4 83 85 3c
       -0.052384328 0.0070008445 -0.013462493 0.016298182
0003e0 1f af 35 3d 94 f3 27 3d 7f 17 a8 3c fb b8 46 bd
       0.04435646 0.04100378 0.020519016 -0.048516255
0003f0 50 5d 01 3c 6a 94 d7 3c e5 b3 b5 3c 1c 42 a6 3c
       0.007895783 0.026315887 0.022180507 0.020295195

module.rppg_feature_extractor.FeatureExtractor.5.conv_block_3d.0.weight f4 [16, 12, 3, 3, 3]
000000 69 0b ee bc 09 a3 fd bb 55 ff 8d 3c 7d 84 e7 3b
       -0.029058175 -0.0077403826 0.017333666 0.0070653544
000010 c2 f8 55 3d 54 74 2b 3d 08 cd 27 3d 29 4d 0a 3d
       0.052239187 0.041858986 0.040967017 0.033764992
000020 cb 1e 46 3d 25 8d 55 bc e6 4e 73 ba 6c 74 8d 3b
       0.04836921 -0.01303414 -0.0009281471 0.004316857
000030 c5 d5 d7 3c 8b 2e f5 3c 7a 56 2a 3c 09 b2 0a 3d
       0.02634705 0.02992942 0.010396594 0.033861194
000040 e0 fb 20 3c d9 c2 77 bd a9 50 62 bc f5 d9 12 bc
       0.009825677 -0.060488556 -0.013813176 -0.008963098
000050 e0 6b 48 bd 24 09 4f 3d 34 e9 83 3c ec ec 63 bc
       -0.048931003 0.050545827 0.01610241 -0.013911467
000060 f8 10 bf bb e7 2a 43 bd 7a 53 1f bd e8 ee 90 bc
       -0.0058308803 -0.047648337 -0.03889797 -0.017692044
000070 4b 41 ff bc 2c 6b 06 bd 74 4d 65 bd 68 6c 21 bd
       -0.031159064 -0.03281705 -0.05598207 -0.039410025
000080 69 0a 10 bd 4d ab 23 bd ff f7 6b 3c e5 78 1f bd
       -0.035166178 -0.039958287 0.014402389 -0.038933653
000090 93 ef f1 bc 42 9f 21 bd 65 88 2f bb 42 02 24 bb
       -0.029533183 -0.03945852 -0.0026784178 -0.002502576
0000a0 6b 96 37 bd 4a 1d dd bb ab c9 74 ba 6d 28 40 bc
       -0.044821184 -0.0067478763 -0.0009337912 -0.011728388
0000b0 80 b3 89 3b 68 af 03 3d 56 69 7c bc 47 de 36 bc
       0.0042023063 0.032149702 -0.015405973 -0.0111613935
0000c0 88 e6 ff 3b fe c0 64 3d b0 f6 0e 3d 6e 5c 8b 3d
       0.007809464 0.055848114 0.03490323 0.06804739
0000d0 95 c3 30 3d 5c b3 5b bb 49 b9 c1 ba cc 4c 57 bd
       0.04315527 -0.0033523655 -0.0014779951 -0.052563474
0000e0 6f 00 2e 3d 5e 30 b5 bc ab 2f 0a bc 43 68 3a 3d
       0.042480882 -0.02211779 -0.0084342165 0.045509588
0000f0 13 26 3d bd 02 e3 8d bc 9e 38 1f 3d 24 54 62 3d
       -0.04617889 -0.01732016 0.038872354 0.055256024
000100 6c 64 71 3d 57 ef aa 3c 16 d5 21 3c 4e 9b 19 bd
       0.05893366 0.02086608 0.009877464 -0.037501626
000110 45 0e c5 3c 5b a1 21 bc a6 2e d9 bb cf 87 2c bd
       0.024054656 -0.00986513 -0.0066278754 -0.042121705
000120 3e 43 2f 3d 5a 91 8b 3d 96 bb 8e 3d 59 21 c7 39
       0.042788737 0.06814833 0.06969373 0.00037981084
000130 9c 21 0d 3b 41 58 be 3c fb 6b 31 3d 70 dc fe 3c
       0.0021534925 0.023235442 0.04331587 0.031110972
000140 66 d4 3c 3c 1d 2a 72 3d a8 4b b8 bc 33 0a 99 bc
       0.011525249 0.059122194 -0.022497013 -0.018681621
000150 69 9e d2 bb a6 26 24 bd df 38 6f bc 73 76 2c bd
       -0.0064275754 -0.04007592 -0.0146009615 -0.04210515
000160 4c 51 0d bd 0f d5 41 3d ca 9b 25 bd 05 69 0b 3d
       -0.03450136 0.04732233 -0.040431775 0.0340357
000170 ef 26 60 bd 95 02 3b bd 55 68 97 bb 79 06 59 bd
       -0.05472463 -0.04565676 -0.0046205916 -0.05298469
000180 bb 90 78 3c b6 8d e8 bc f0 61 94 3c 3a b5 ca bc
       0.015171225 -0.028387886 0.018113106 -0.024744619
000190 7e af 3f 3c 14 c9 a1 bc 75 e8 06 bd fc c7 8f bd
       0.011699555 -0.019749202 -0.032936532 -0.07020566
0001a0 00 5a 2c bd 01 65 f6 bc cf 5e 4f bc 6a 6f 25 3d
       -0.04207802 -0.03007746 -0.0126568815 0.040389456
0001b0 85 8d 3f bc 6a 2c b7 3c e5 a5 01 3c bf 68 f8 3c
       -0.011691456 0.022360045 0.0079130875 0.030323384
0001c0 42 b9 9f 3c 30 e4 f4 3c 5a a1 49 bd de 30 7f bd
       0.019497517 0.029893965 -0.049226142 -0.062302463
0001d0 12 ef 1c 3b 9a 3a 4a bc 1f 10 2d bd 3c 9a af 3c
       0.0023946208 -0.012343073 -0.042251702 0.02143585
0001e0 2b 7e af bc 83 f9 1e bc cc bb 39 3d 2f f5 cf 3c
       -0.021422466 -0.009703043 0.045345113 0.025385467
0001f0 ce f4 ea 3a ab dd 5c 3c e1 75 53 bb 0e 73 0f bd
       0.0017925741 0.013480584 -0.0032266306 -0.035021834
000200 2e 15 47 bd 27 22 4e bd da fc d9 bc 3c f4 9a bc
       -0.048604183 -0.05032554 -0.026609827 -0.018915288
000210 22 02 26 3d a8 a9 9d bc bc 96 f0 3a 26 9c ed 3a
       0.040529378 -0.019245937 0.0018355469 0.0018128201
000220 0b 12 ae 3b dd 08 45 3c b0 1e 6b bd bd 59 95 3b
       0.0053122095 0.012026039 -0.057402313 0.004557817
000230 03 c1 40 3d ba 80 91 3c 65 5a f7 3c 8a f7 25 3c
       0.04705907 0.017761577 0.03019447 0.010129819
000240 22 4d 3f bd fa fc ff 3b b3 f4 19 bd c2 46 0d 3d
       -0.04670442 0.0078121396 -0.03758688 0.034491308
000250 ae fd 3e 3d 15 a4 26 3b 90 1d 7c bd 0f f1 f6 bc
       0.046628647 0.002542739 -0.06155163 -0.030144243
000260 62 ab 9a bc a7 cd f7 3c d0 2b 47 bc 7f f6 e6 3c
       -0.01888055 0.03024943 -0.012156442 0.02819371
000270 d3 37 61 3c 44 09 5d 3d d4 0b 82 3d 33 ba ec 3c
       0.01374622 0.053963915 0.06349912 0.02889738
000280 c3 84 59 3c 47 22 38 3d d7 09 4a bd a8 3f cf 3a
       0.013276282 0.044954564 -0.04932579 0.0015811818
000290 a5 1f 38 b9 cf 11 3a 3d ae f3 89 bc 99 76 38 3d
       -0.00017559396 0.04542714 -0.016839828 0.04503498
0002a0 69 4a 0e bd d9 1e 12 3d 23 c1 cc bc 40 e3 b0 3c
       -0.03473893 0.03567395 -0.024994439 0.021592736
0002b0 58 30 31 bd 0f 46 aa bc a2 c8 da 3c 98 b3 31 3d
       -0.043258995 -0.02078536 0.026706997 0.043384165
0002c0 08 f8 14 bc 11 ef 19 3d 57 5f 9a bc e3 89 92 bc
       -0.009092338 0.037581507 -0.01884429 -0.017888015
0002d0 72 99 b9 bc ff 80 c7 3c 56 ed 88 bd e0 1c 29 bd
       -0.022656176 0.024353502 -0.06685893 -0.041287303
0002e0 b7 8b 90 3b d3 09 37 3d d7 68 05 bd f5 42 a3 3c
       0.0044111866 0.044687103 -0.032570686 0.019929389
0002f0 90 fb 3e 3d 59 96 7e bc 55 eb 45 3d 7d 41 41 bb
       0.046626627 -0.015538775 0.048320133 -0.0029488497
000300 d5 f2 87 bc 01 0e 55 bc 8c a7 16 3d 35 7c 1d 3d
       -0.016595284 -0.013003827 0.03678088 0.03844853
000310 6c b6 c0 39 a8 4d 12 3d 0f 85 f1 bc 09 b8 19 3c
       0.0003675701 0.03571859 -0.029482393 0.009382256
000320 7a b6 7e 3d 94 96 7f 3c d5 96 2d 3d 2c 69 ec bc
       0.062185742 0.0155998655 0.042380173 -0.028858744
000330 4c 0d 4e 3d a4 1c 08 3b 35 28 b2 bc 4c 29 31 bd
       0.05030565 0.0020769024 -0.021747688 -0.043252274
000340 f9 d8 51 3c 28 db 25 bd 09 7f e4 3c 65 fe 6d ba
       0.012808078 -0.040492207 0.027892606 -0.000907874
000350 1e 1d 79 bd 5c 73 0c bc 2f 77 ca bb 48 0b 1b bd
       -0.060818784 -0.008572426 -0.0061787586 -0.037852556
000360 a9 0e 41 3c 4d 75 1a 3d b9 85 36 3d 48 9a 4b bd
       0.01178328 0.037709523 0.04456112 -0.04970768
000370 60 10 43 bd 39 d3 2b bc 54 30 8d 3c 52 1e 5d bd
       -0.04762304 -0.010487371 0.017234959 -0.053983994
000380 4a fe 34 3b 1a 48 32 3d 9e 9e 42 bb 39 3e cc 3b
       0.0027617388 0.043525793 -0.0029696594 0.0062330035
000390 d0 dc b5 bb 25 f4 3a bd 61 3c 1b 3d 57 00 32 3c
       -0.0055500045 -0.04564299 0.03789938 0.010864339
0003a0 51 dd 20 3c 29 84 31 3d 66 93 0a 3d 5e 40 af 3c
       0.009818391 0.04333893 0.033831976 0.021392997
0003b0 89 98 7b 3d 6e 68 12 3d 4b 72 64 3d 88 6a a7 3c
       0.061424766 0.035744123 0.05577306 0.02043654
0003c0 7b f9 4d bc 8d 34 1c 3d c9 0b f8 ba f7 62 47 bc
       -0.012571688 0.038136054 -0.0018924411 -0.012169591
0003d0 c7 09 eb bc a1 6d 56 bd e2 74 48 bd a8 b5 a5 bc
       -0.028691186 -0.052350644 -0.048939593 -0.020228222
0003e0 56 ed 4e 3d 3b 1d 3c bc 77 30 fb 3b 0c 0c 06 3d
       0.05051931 -0.011481578 0.0076656896 0.032726333
0003f0 22 76 be bc 71 85 56 3d 0a 24 2d 3d af 70 b9 3c
       -0.02324969 0.052373353 0.042270698 0.02263674

module.rppg_feature_extractor.FeatureExtractor.6.conv_block_3d.0.weight f4 [16, 16, 3, 3, 3]
000000 c0 36 49 bc 98 9b 74 3c 9c 67 14 bd 38 6b 10 bd
       -0.01228112 0.014929675 -0.036231622 -0.0352585
000010 e3 e8 ff 3b b7 e4 3f 3d ca 04 b4 bc 84 8b 19 3d
       0.0078097447 0.04684898 -0.02197494 0.037486568
000020 94 f0 41 bd 17 d0 ee bc 5d 15 20 bd 0d 87 40 3d
       -0.047348574 -0.02915196 -0.039082874 0.047003794
000030 b7 fe 3b 3d 54 07 db bb 85 d2 1f bd 87 97 32 bd
       0.045897212 -0.006684223 -0.039019126 -0.04360154
000040 6b 70 07 bd af 1e 91 bc 5a 6e f1 3b 79 9a f0 bc
       -0.033066195 -0.017714826 0.0073678913 -0.029370533
000050 de c9 00 3b 69 93 3e 3d 31 c4 af bb e9 f6 bc bb
       0.0019651572 0.0465273 -0.005363964 -0.0057667387
000060 bd 14 ea 3c 37 7b fe 3b ba 64 00 3d 0d c8 96 3c
       0.028574342 0.007766153 0.03134606 0.018405939
000070 18 f7 af bc 52 a7 62 3b 22 b4 c9 bc 8a db de bc
       -0.021480128 0.0034584594 -0.024622027 -0.027204294
000080 fc 64 62 3c 51 de 51 bd 23 08 2e bd 30 1e 9c bb
       0.013818022 -0.051237408 -0.04248823 -0.004764341
000090 a1 71 93 bc 76 48 6f bc 14 d6 2a 3c 18 42 d3 bc
       -0.017998518 -0.014604678 0.010427017 -0.025788352
0000a0 6a 35 af bc 99 28 ff 3a f8 ec 70 3b 00 a4 77 3d
       -0.021387774 0.0019467055 0.0036762338 0.060459137
0000b0 5d 24 c5 3c 32 57 69 bc 46 63 23 3d 9f cb 75 3b
       0.02406519 -0.01424198 0.039889596 0.00375054
0000c0 ca d2 9e 3c 16 25 53 3d 35 64 3f bd 92 cb 28 3d
       0.019387621 0.05154904 -0.046726424 0.041209765
0000d0 9d 4f 1a bd 70 ad 9e 3c 1c 20 42 bd 80 39 6e bc
       -0.03767358 0.01936981 -0.047393903 -0.014540076
0000e0 e0 ec 71 bd cb 20 33 3c 8e e7 aa 3c a6 05 b1 3b
       -0.059063792 0.010933111 0.020862367 0.0054022847
0000f0 10 ab b5 bc 71 da 1d bc 74 13 ab bc 0d 84 03 bb
       -0.022176296 -0.0096346 -0.0208833 -0.0020067722
000100 22 d4 1c 3d 96 71 68 bd c7 c7 5b bc a0 c7 e5 3c
       0.038288243 -0.05674895 -0.01341433 0.02804929
000110 ae b4 9d 3b 86 1f 13 bd c0 c5 50 3d 7c 90 e7 bc
       0.0048127985 -0.035918735 0.05096984 -0.028267138
000120 bc 94 0d bd 0f 17 a9 3c fd a8 37 bd 2c e6 67 3d
       -0.034565672 0.020640878 -0.044838894 0.056615993
000130 98 09 a4 bc bc 38 26 3c 9e a4 70 3d d9 61 12 bd
       -0.020024106 0.0101453625 0.05875074 -0.035737846
000140 6f 83 e8 bc f0 72 72 bd e1 ce 9d 3c 88 e7 06 bd
       -0.028382985 -0.059191644 0.019263687 -0.03293565
000150 a1 a1 b2 bc 19 59 f2 bc d9 59 e5 3b 33 dd dc 3c
       -0.021805586 -0.0295835 0.006999236 0.026960945
000160 36 98 5e 3c 08 9a 5a 3d e1 64 40 3c b7 d1 30 3d
       0.013586095 0.053369552 0.011742801 0.04316875
000170 18 cf 3a 3d 3f 4f c3 3c f3 8f c9 3c 58 46 a3 3c
       0.045607656 0.023841498 0.024604773 0.019931003
000180 46 d5 90 3c e5 2e 57 bc 8f ea 90 3c 06 16 4b 3d
       0.017679822 -0.013133739 0.017689971 0.04958155
000190 dc a1 85 bc 5b 9b 93 bc e4 cf c8 3c b5 ce ef 3c
       -0.016312532 -0.018018415 0.024513192 0.02927337
0001a0 b8 6b 3a bc d3 1c 06 bd 38 21 cb 3c 2e 00 f5 bc
       -0.011378221 -0.032742333 0.024796113 -0.029907312
0001b0 3a 4b c8 3c 3e 25 b5 bb 30 1f 4a bd 4f 90 24 bd
       0.024449933 -0.0055281213 -0.04934615 -0.040176686
0001c0 bf b8 d6 3c 24 fb f2 3c 66 fd 95 3c 39 fa d5 3c
       0.02621114 0.029660769 0.018309306 0.026120292
0001d0 9c 19 4f bc 67 45 12 bd 8c 05 51 bd 6b a3 19 3d
       -0.012640383 -0.03571072 -0.05103068 0.037509363
0001e0 77 75 64 bd 7a 50 53 ba 8b 75 21 3d 87 2c 0a 3d
       -0.055776086 -0.0008061003 0.03941874 0.03373387
0001f0 bb 16 bc bc ec 79 be bc d5 bb 50 3d 32 5f 1d bb
       -0.022960057 -0.023251496 0.05096038 -0.002401304
000200 a0 ec 78 bc bd 81 f6 ba 11 c4 c9 bb 1d b9 8d 3c
       -0.015193135 -0.0018806976 -0.006157406 0.017300183
000210 15 91 06 bd f2 cc 06 3d 15 4d 24 3d f6 00 39 3d
       -0.032853205 0.032910295 0.040112574 0.045166932
000220 54 53 97 bc 4c d9 44 3d 39 e4 db 3b 69 93 fc bc
       -0.018472351 0.048058793 0.006710556 -0.03083201
000230 b0 9c fd 3b 71 b5 30 bd 4e 8c c1 3c 81 c0 89 bd
       0.007739626 -0.043141786 0.023626473 -0.0672617
000240 3a ef 67 3c a9 19 45 3c 23 e7 87 bc 1e bf a2 ba
       0.014156157 0.012030044 -0.016589707 -0.0012416577
000250 6a bb 04 bc 7a ce 1b bd 38 06 f1 3c da a9 9f 3b
       -0.008101324 -0.03803871 0.02942191 0.004872543
000260 56 be 10 ba 5f 25 f1 3b fe 01 01 bd d7 bc 05 bd
       -0.00055215263 0.0073591913 -0.03149604 -0.032650795
000270 32 78 12 bc 88 25 ec 3c ba 7a 59 bc 09 da ed bc
       -0.00893979 0.02882649 -0.013273889 -0.029034631
000280 f5 e3 58 bc 90 9a cc 3c eb 36 2a 3d 78 a9 07 3d
       -0.013237943 0.024976045 0.04155628 0.033120602
000290 55 f4 71 bc 1d 6e 29 3d 3f e7 a3 bc 51 fe 79 bc
       -0.014767726 0.041364778 -0.020007728 -0.015258388
0002a0 a9 ba 54 3d 50 48 89 3b 16 5b 69 bc 9d b7 53 3d
       0.051935825 0.0041895285 -0.014242908 0.05168878
0002b0 c9 22 38 bd 7b 8f 60 bc 21 1b 4d bc 1f 0d 87 bc
       -0.04495505 -0.013706083 -0.012518675 -0.016485749
0002c0 f1 61 06 3d 2d 15 48 3d f7 b7 29 bd 2d 31 45 bc
       0.032808248 0.04884832 -0.04143521 -0.01203565
0002d0 bb f3 ea 3c b3 1d e7 bc 52 dc b5 3c 96 13 1d bd
       0.028680673 -0.028212404 0.022199783 -0.038348757
0002e0 79 b5 c8 bb 22 a8 be bc f4 cb f0 bc 95 cf 88 3c
       -0.006125149 -0.023273531 -0.029394127 0.016700545
0002f0 bb 0d 07 3d c2 4d 6d 3d b9 57 92 3a f3 4f 2a 3d
       0.03297208 0.057935484 0.0011165059 0.04158015
000300 db f8 0a 3c 61 a1 02 bd 6c 84 4d 3d dc 4f 49 bc
       0.008482183 -0.031892184 0.050175115 -0.012287106
000310 1e 37 be 3b bd 93 40 bc 53 d7 83 bc 68 a4 35 bd
       0.0058049103 -0.011753974 -0.016093886 -0.044346243
000320 2b f2 06 3c e2 a5 9d 3a cc 89 11 3d 6d 0d 2f bd
       0.008236448 0.0012027586 0.035531804 -0.042737413
000330 35 8f 21 bc 14 79 94 3c e5 09 bb bc ee 34 95 bc
       -0.009860803 0.01812414 -0.022831867 -0.018213715
000340 06 d4 6a 3c de f7 b8 bc 7c 18 11 bd d4 1b b2 3c
       0.014332777 -0.02257913 -0.03542374 0.021741785
000350 96 81 cd 3c 7a 71 00 bd 3a 32 03 3d 0f bd 04 3d
       0.025086205 -0.03135822 0.03203032 0.032406863
000360 02 da a1 bc cf ef a8 3b 9a 67 47 bc 50 de 08 3d
       -0.019757275 0.0051555405 -0.012170697 0.03341514
000370 dc a5 5b 3d cc 28 68 3c 80 9c 07 bd c4 5a 52 bd
       0.053624973 0.014169883 -0.033108234 -0.051356092
000380 5c 65 08 3c ae fc 0a 3d d9 3c 21 bd 2e 78 18 3d
       0.008324947 0.03393238 -0.03936467 0.037223987
000390 fa e8 f7 bc 96 03 96 3c eb a1 0a 3d 2d e0 d5 bc
       -0.03026246 0.018312257 0.033845823 -0.026107872
0003a0 37 5d 2a 3c 40 c6 0d 3c 07 24 97 3c b1 f1 ae 3c
       0.010398201 0.0086532235 0.018449796 0.021355482
0003b0 54 bb 0c 3c 58 ed e0 3c 3a 4d 99 3a b1 90 a9 bb
       0.008589584 0.027456924 0.0011695989 -0.0051747193
0003c0 a5 e7 a4 bc ae e0 c8 bc aa 23 a1 bc d0 b7 08 bc
       -0.020129988 -0.024521198 -0.019670326 -0.008344606
0003d0 b4 6f 0f bd be c4 15 bd dc 32 bb bc 21 97 8d bc
       -0.035018638 -0.03656458 -0.0228514 -0.017283978
0003e0 52 3e ae bc 4a d8 46 bd 1e 54 44 bd a7 e9 18 3d
       -0.021269951 -0.048546113 -0.047931783 0.037332203
0003f0 92 46 32 3d 05 52 d9 3c 58 34 9b bc 3c 98 26 3d
       0.043524332 0.026528368 -0.018945858 0.040672526

module.rppg_head.conv_block.0.conv_block_3d.0.weight f4 [16, 16, 3, 3, 3]
000000 4c d0 2a bd 1a 47 5e bd fe 15 30 bd 64 9b c8 3a
       -0.041702554 -0.054267026 -0.042989723 0.0015305099
000010 9d 52 f8 bc 23 06 6f bd 9c b0 99 3c 3e 4b 32 bc
       -0.03031283 -0.05835546 0.018760972 -0.010882197
000020 fe 6a a2 3c 09 66 be bc dc fa 0c bd fe e8 bc 3b
       0.019826408 -0.023242014 -0.034418926 0.0057650795
000030 e8 38 cd 3b 53 22 44 3a e4 87 24 bd 57 cd f7 3c
       0.0062628873 0.00074819213 -0.040168658 0.03024928
000040 c0 2d 1b 3d 25 d5 b7 bc c1 94 4f bd af fd 4f bd
       0.037885427 -0.022440502 -0.050678972 -0.05077904
000050 b0 1c 28 3c 40 d1 f0 bb 8c 26 15 bd af db a3 bb
       0.010260746 -0.0073491633 -0.036413714 -0.0050005536
000060 be c2 b5 bc 72 56 ee bb 10 c6 97 3c 62 4e f2 3c
       -0.022187587 -0.0072734887 0.01852706 0.029578391
000070 ae 0a 62 3d 5c bd e9 bc 35 40 c8 bb 86 43 d7 bc
       0.055185966 -0.028532676 -0.0061111697 -0.026277315
000080 72 b3 4d bc 16 e4 97 bc d4 9a 45 bc 8a a8 91 bc
       -0.01255499 -0.018541377 -0.01206084 -0.017780561
000090 51 97 28 bd d8 e5 51 3d 73 b1 13 bd b7 01 bd 3c
       -0.04115993 0.051244587 -0.0360579 0.023072107
0000a0 cf 7a 03 3d 8b 72 4c bc 3a e6 28 bc 34 d5 22 3c
       0.03209954 -0.012478481 -0.010308797 0.009938527
0000b0 1d 85 81 3c a4 0d 8a ba 87 80 0e bd 96 3d aa bc
       0.015810544 -0.001053263 -0.034790542 -0.02078132
0000c0 ea 73 9b 3c 23 66 14 3d 8a e8 a3 3c 94 f0 86 bc
       0.01897617 0.036230218 0.020008344 -0.016472138
0000d0 a9 8d a2 bc 7f 42 c4 bc 9f 90 b9 3c 8b f6 cb bb
       -0.01984294 -0.023957489 0.022651969 -0.0062244586
0000e0 0c 3e 7f bc 1f 0c 3b bd 04 e6 e2 bc 97 68 3a bd
       -0.015578758 -0.045665856 -0.02769757 -0.0455099
0000f0 0b af 83 3c 94 c6 4a 3d 47 51 ad bc 41 2b 03 3d
       0.016074678 0.049505785 -0.02115692 0.032023672
000100 01 4a b5 bc fd f2 c9 bc 66 7d c6 bc fd 56 53 bc
       -0.022130014 -0.024651999 -0.024229717 -0.012899158
000110 c5 48 b5 3c 88 7c f8 3c bc 25 89 bc 29 52 29 3c
       0.022129426 0.030332819 -0.016741626 0.01033453
000120 a2 10 c2 bb e8 19 06 3d 4d c1 38 3b 54 fd 90 bc
       -0.005922393 0.03273955 0.0028191388 -0.017698921
000130 56 9f dc bc f9 8b ba 3c a9 4b bf bc 57 a4 08 3d
       -0.026931446 0.022771822 -0.023351507 0.03335985
000140 9d 6e a1 3c 84 89 c6 bb f0 cb 0d bd aa 53 84 bc
       0.019706065 -0.0060588736 -0.034618318 -0.016153175
000150 e9 c8 f3 bc 9b 4a 01 3d cc 6c 76 3c 68 11 bc bc
       -0.029758887 0.03156529 0.015040588 -0.022957519
000160 ee be e4 ba d0 5c 35 3d 18 d0 3b bd 0d 93 92 bc
       -0.0017451921 0.044277966 -0.04585275 -0.017892385
000170 aa 50 84 3c 5d 6c a2 3c 6d 6e 34 3d 43 1c 51 3c
       0.016151745 0.019827062 0.044050623 0.012763086
000180 5e 5a 43 bd fb 82 e5 bc 67 16 39 3d a7 75 88 3c
       -0.047693603 -0.028016558 0.04518738 0.016657664
000190 9a 10 d5 bb 63 85 49 bc 40 49 33 3d e5 0a f7 bc
       -0.006502223 -0.012299868 0.04377103 -0.030156562
0001a0 e6 e9 5c 3b eb 56 19 3d d4 09 d5 bc 83 90 30 3d
       0.003370875 0.037436407 -0.026005663 0.043106567
0001b0 aa 03 e6 bb c6 84 80 bc b6 d7 3a 3d 44 de 6a 3d
       -0.0070194798 -0.015688311 0.045615874 0.057340875
0001c0 98 f0 4f 3d c6 47 83 3c 9a a3 5d bc 4a a6 6f 38
       0.050766557 0.016025435 -0.013527775 5.713691e-05
0001d0 f4 79 e5 3c 38 f0 0f 3d 44 46 3c 3d 7b 40 30 3d
       0.028012253 0.0351412 0.045965448 0.043030243
0001e0 87 3e e4 3c 54 88 44 3d 60 b5 f6 3c a6 d4 1a bd
       0.027861847 0.047981575 0.030115783 -0.037800454
0001f0 02 40 d4 bc 67 26 0e 3d 22 44 61 bd b5 58 2d 3c
       -0.025909428 0.034704592 -0.054996617 0.010580231
000200 0e 89 3a bd 50 9c c7 ba 34 26 0a bd 13 60 39 bc
       -0.04554086 -0.001522908 -0.03372784 -0.01131441
000210 79 7b a8 bb dc 9a 3c bb e4 85 26 bb 9d 4b 53 3d
       -0.005141672 -0.0028778827 -0.0025409395 0.051585782
000220 3f 37 b5 bc 34 c5 b3 bc 5d b4 12 3d 9b 16 d4 3c
       -0.02212107 -0.02194462 0.03581654 0.025889685
000230 d8 1e 1d bd 45 67 60 ba 9e b3 e0 bc 8f 68 14 ba
       -0.038359493 -0.000856031 -0.027429398 -0.00056613324
000240 43 14 7b bc c4 7e 64 bc 67 5a 43 3c 2d 70 06 bd
       -0.015324655 -0.013946239 0.011923409 -0.032821823
000250 8b e8 53 bc 55 12 2b bd 15 de 8f 3c 0e de cc 3c
       -0.0129338605 -0.04176553 0.017561952 0.025008228
000260 5a a6 d8 bb af ae ba bc dd 36 22 bd 04 ac f5 3b
       -0.0066116275 -0.022788374 -0.039603103 0.0074973125
000270 82 8c 1c bd c7 79 dd bc 95 dc 13 bc 39 93 05 3d
       -0.038219936 -0.027035607 -0.009024759 0.032611106
000280 e8 ca 98 3b 12 51 20 bd 98 75 3b bc 82 b6 c2 bc
       0.00466286 -0.039139815 -0.011441611 -0.023768667
000290 e2 34 44 3a 86 33 84 3b 86 8f 1d bd 1d e8 de bc
       0.0007484687 0.0040344624 -0.038466953 -0.02721029
0002a0 7e 77 ba bc 33 65 99 3c 1e 1b 36 bc 72 bb f0 3c
       -0.022762056 0.018725013 -0.011114864 0.029386256
0002b0 f3 87 a8 bc 29 4e ca bc 62 2c 96 3c 72 ad 29 bd
       -0.020572638 -0.024695473 0.01833171 -0.041425176
0002c0 97 4a 2a 3d 45 da d4 3c a6 52 e9 bc 19 50 0f 3d
       0.04157504 0.025982985 -0.028481793 0.034988496
0002d0 69 4e 44 3d 06 1f c5 bb c6 e4 3c 3d e1 14 5b 3c
       0.04792634 -0.006015661 0.046116613 0.013371677
0002e0 83 6d 97 3b e4 8d 03 3c cd b3 07 bd 3a e5 9b 3c
       0.004621209 0.008029435 -0.033130456 0.019030202
0002f0 6b 13 2b bc 18 0e 45 3d f4 93 0d 3d 67 e6 58 bb
       -0.010441641 0.048109144 0.034564927 -0.0033096315
000300 02 48 8d 3b e1 c4 6d bd 65 09 10 bd 96 b5 25 bd
       0.0043115625 -0.058049086 -0.03516521 -0.040456377
000310 34 91 3f bd cd a3 9e 3c 26 c2 1c 3d 10 07 9e 3c
       -0.046769336 0.019365216 0.038271092 0.019290477
000320 dc 0b 9a 3c 36 6b 36 bd 40 41 4c bd fd f7 2d 3b
       0.018804483 -0.044535838 -0.049866915 0.0026545518
000330 ed b1 9f bb 60 ae 91 bc f6 ab 05 3d ae 74 be bc
       -0.0048735053 -0.017783344 0.032634698 -0.023248997
000340 2e c0 94 3b d2 bf a8 bb 5e 29 db 3c b7 98 04 3d
       0.004539511 -0.00514982 0.026753124 0.032372203
000350 16 93 e0 bc e6 29 c4 bb e6 e7 5c 3d 19 c1 d0 bb
       -0.027413886 -0.00598644 0.053932093 -0.0063706753
000360 6a 7e 10 bd df e0 95 3c 2e b9 10 3d 5b 08 39 bd
       -0.035276808 0.018295703 0.03533285 -0.045173984
000370 4c fb 3b 3d 9c a4 c5 bc 23 56 49 bb f6 02 47 bd
       0.045893952 -0.024126343 -0.0030721508 -0.04858681
000380 6d ad 22 3c 82 06 3f 3d 94 a6 53 3a 0f f6 2e bd
       0.009929043 0.046637066 0.00080738333 -0.04271513
000390 e6 75 0c bd 60 8c c1 bc 65 66 10 bd c0 79 d0 bb
       -0.034292124 -0.023626506 -0.0352539 -0.00636217
0003a0 67 9c 1d 3d 42 f3 e4 bc 49 4b 3f 3c 71 fe 49 3d
       0.038479235 -0.027948026 0.011675664 0.04931492
0003b0 5a 07 6c bc 30 69 22 3d 9c ff b9 bc 9f 42 a2 3c
       -0.01440605 0.039651096 -0.022704892 0.019807158
0003c0 d5 cd ef 3a 96 57 b0 3c 0a c4 f5 bc a1 5a 24 bd
       0.0018295596 0.02152614 -0.030000705 -0.040125493
0003d0 90 06 ec 3c d9 b2 87 3c 94 5d 29 3c b9 a8 94 3c
       0.028811723 0.016564773 0.010337252 0.01814686
0003e0 bc cc 94 3c 9c 0f 99 3c a5 b2 2e bd 1c e9 9b bc
       0.018164031 0.018684201 -0.042650837 -0.019032054
0003f0 5e 5f ec bc b4 57 0f 3c 91 8f a3 3c 87 ad 4b bc
       -0.028854068 0.008748937 0.019965919 -0.012431509
