FactorizePhys/final_model_release/UBFC-rPPG_FactorizePhys_Base.pth (torch, 216521 bytes, 12 tensors)

module.rppg_feature_extractor.FeatureExtractor.0.conv_block_3d.0.weight f4 [8, 3, 3, 3, 3]
0	0xbd8ddc09	-0.06926734
1	0x3d958197	0.07300108
2	0xbd474d37	-0.048657622
3	0x3b92533a	0.004465488
4	0x3d1687e2	0.03675068
5	0x3d76eccb	0.060284417
6	0xbcd49a42	-0.025952462
7	0xbda348a4	-0.079728395
8	0xbd485b07	-0.048914935
9	0xbda9bf62	-0.082884565
10	0xbda75a00	-0.08171463
11	0x3d3fee62	0.0468582
12	0x3d182e4a	0.03715352
13	0x3d48a567	0.048985865
14	0xbcd80aa3	-0.02637226
15	0x3d9bb6e4	0.07603243
16	0x3de03e85	0.10949425
17	0x3d74056d	0.059575487
18	0xbd89e5f1	-0.06733311
19	0xbd385147	-0.044999387
20	0xbd8552b9	-0.06509919
21	0x3d836c1c	0.064171046
22	0x3c5616a1	0.013066919
23	0x3de07a1f	0.10960793
24	0xbcb705ff	-0.022341726
25	0x3dc33080	0.09530735
26	0x3d6d168f	0.05788284
27	0xbd002b4b	-0.031291287
28	0xbda3ee42	-0.080044284
29	0x3c9956c3	0.018718129
30	0xbcf69c10	-0.030103713
31	0xbdc3cd03	-0.09560587
32	0x3d2afd23	0.041745316
33	0xbce1abb8	-0.027547702
34	0xbe035746	-0.12826261
35	0xbd9e4000	-0.07727051
36	0x3db2685c	0.08711311
37	0x3d0b6e6d	0.034040857
38	0xbdcd0393	-0.10010447
39	0x3d68e5b7	0.0568597
40	0xbcc9683d	-0.024585837
41	0xbdfe2413	-0.12409224
42	0x3c32405d	0.010879603
43	0xbd53379e	-0.051566713
44	0xbd7084ea	-0.058720507
45	0xbc27f156	-0.01025041
46	0xbdfb1aaf	-0.12260949
47	0xbc4f9d36	-0.012671759
48	0x3d8cee0f	0.068813436
49	0x3b6046bd	0.003422185
50	0xbcea3fb2	-0.028594825
51	0x3d179944	0.0370114
52	0xbcb3633b	-0.021897903
53	0xbd25e6ad	-0.040503193
54	0x3d071159	0.03297553
55	0x3ca397fc	0.019969933
56	0x3d3574a3	0.044300687
57	0xbce901d8	-0.028443262
58	0x3db508e8	0.08839589
59	0x3db081b7	0.08618491
60	0xbc954327	-0.018220497
61	0x3d83e7a2	0.06440665
62	0x3d132d6f	0.035932
63	0x3ddfe652	0.10932602
64	0x3dcbfa23	0.09959819
65	0x3d81627d	0.06317613
66	0x3da03c9c	0.0782406
67	0x3d01302f	0.031540092
68	0xbca900a7	-0.020630194
69	0xbd19c0ea	-0.037537493
70	0x3dea133b	0.11429449
71	0x3d8a76ee	0.06760965
72	0xbda7b5d2	-0.08188976
73	0x3d2004a5	0.03906693
74	0xbcf840e5	-0.030304382
75	0xbdbf9d21	-0.09356142
76	0x3dfde6ee	0.12397562
77	0x3c8d81f1	0.017273875
78	0x3d66fe8e	0.056395106
79	0x3c8fa76a	0.017535884
80	0xbda45cd4	-0.08025518
81	0x3d9b0aa8	0.07570392
82	0xbd787d0f	-0.06066614
83	0xbe001b82	-0.12510493
84	0x3d964bb8	0.07338661
85	0xbd81aa69	-0.06331331
86	0xbd712c4c	-0.058880135
87	0x3d93634d	0.071966745
88	0x3d20d46b	0.039265078
89	0xbda50fea	-0.08059676
90	0xb960bbcc	-0.00021432264
91	0xbd49c8d2	-0.049263783
92	0x3dc0af28	0.094084084
93	0xbddb252a	-0.10700448
94	0xbd8ff523	-0.07029178
95	0xbd0ebbd1	-0.034847084
96	0xbd933323	-0.07187488
97	0x3dc4805b	0.09594794
98	0xbd5fad02	-0.054608352
99	0xbd442cdb	-0.04789434
100	0x3bf848ec	0.0075770523
101	0xbce3d6ca	-0.02781238
102	0xbce27c35	-0.027647117
103	0xbd2483ab	-0.04016463
104	0xbdd7ee67	-0.105435185
105	0x3d9efdd9	0.07763261
106	0xbd31a937	-0.043374266
107	0x3cf94ab3	0.030431127
108	0x3df25b9b	0.118338786
109	0x3d93adb1	0.072108634
110	0xbd49bb2b	-0.049250763
111	0x3d21223b	0.039339285
112	0x3d6406bc	0.055670485
113	0x3dc00e8d	0.09377775
114	0x3df11aa6	0.11772661
115	0x3e073f9f	0.13207863
116	0x3cdd05e3	0.026980346
117	0x3de776e7	0.11301976
118	0xbc5558aa	-0.013021627
119	0xbd1010d2	-0.03517229
120	0xbd1fad28	-0.038983494
121	0x3dd1638a	0.10224064
122	0x3d8e1d28	0.06939155
123	0x3d33f7a8	0.043937355
124	0xbd59bf1a	-0.053160764
125	0xbd324ddf	-0.043531295
126	0x3c3dd09c	0.011585381
127	0x3d08b785	0.033378143
128	0xbd934686	-0.07191186
129	0x3db72f7e	0.08944605
130	0xbd1ada72	-0.037805982
131	0xbc9658ac	-0.018352829
132	0xbd533f0e	-0.051573806
133	0x3d0d549b	0.034504514
134	0xbce1c376	-0.027559023
135	0x3ddd9761	0.10819889
136	0x3dd443d9	0.103645034
137	0x3cfdfeb8	0.031005248
138	0xbd04cc28	-0.03242126
139	0x3db71f29	0.0894149
140	0x3da91a90	0.082570195
141	0x3de16add	0.11006711
142	0xbdab13c2	-0.08353378
143	0xbb880244	-0.0041506607
144	0xbca69dbc	-0.020338885
145	0xbd02004a	-0.031738557
146	0xbb70a09e	-0.003671683
147	0xbcaae0c3	-0.020859128
148	0x3dba3413	0.090919636
149	0xbddbebb3	-0.107383154
150	0xbde00606	-0.10938649
151	0xbcc6e23e	-0.024277803
152	0xbd8a7609	-0.06760795
153	0xbca2be71	-0.0198662
154	0xbd9a0c7f	-0.07521915
155	0xbdb5d91c	-0.08879301
156	0xbc057947	-0.008146591
157	0xbd369642	-0.04457689
158	0x3cda27e9	0.026630359
159	0x3d58b524	0.052907124
160	0xbd63efb2	-0.055648513
161	0x3d7fc909	0.06244758
162	0x3d2cbd10	0.04217249
163	0xbd1bd0af	-0.038040813
164	0xbd80faa2	-0.062978044
165	0xbd180075	-0.03710981
166	0x3dc1aa0f	0.09456264
167	0xbd81883c	-0.06324813
168	0xbd935dab	-0.071956
169	0xbda32cd0	-0.07967532
170	0x3dad7e55	0.084713615
171	0x3d804303	0.062627815
172	0xbd8f4376	-0.06995289
173	0x3dda9602	0.10673143
174	0xbdac6940	-0.08418512
175	0xbdff6aab	-0.12471517
176	0xbdbf0434	-0.093269736
177	0x3d7853d6	0.060626827
178	0xbd607773	-0.054801416
179	0xbd6ec642	-0.058294542
180	0xbc7a94d0	-0.015294269
181	0xbd80a2b1	-0.06281031
182	0x3dda3152	0.10653938
183	0x3b349bae	0.0027558613
184	0xbd07a25a	-0.033113815
185	0x3dc9ca72	0.098530665
186	0xbdc30160	-0.09521747
187	0xbd408306	-0.046999954
188	0x3dcc5f5c	0.09979126
189	0xbdb5c94e	-0.088762864
190	0x3ccdbe03	0.025115019
191	0xbd9bec25	-0.076134
192	0xbddcb4c1	-0.107766636
193	0xbd79a82c	-0.060951397
194	0xbdb0d8c4	-0.08635095
195	0xbd4a3b4c	-0.049372956
196	0xbd9a10f6	-0.07522766
197	0xbd4e2a82	-0.050333507
198	0xbd2b2756	-0.04178556
199	0xbda4189e	-0.08012508
200	0xbdacf4f9	-0.08445162
201	0xbd333444	-0.043751016
202	0xbcd1fdbc	-0.025633685
203	0xbd87daba	-0.06633516
204	0xbde441fb	-0.11145397
205	0x3d6cc671	0.057806436
206	0xbe01c501	-0.12672807
207	0x3dab8fc9	0.08377034
208	0x3bc55d9a	0.006023121
209	0xbd29d1d7	-0.041459884
210	0xbdf481be	-0.11938809
211	0xb9a4b2c7	-0.00031413717
212	0xbddb68f2	-0.10713376
213	0x3d53e7b4	0.05173464
214	0xbc95cb7a	-0.018285502
215	0xbde32d1e	-0.1109259
216	0x3df8142a	0.12113221
217	0x3ca07134	0.01958523
218	0x3d616732	0.055030055
219	0x3b8b172f	0.004244707
220	0x3dc06bd7	0.09395569
221	0xbd0bdd34	-0.034146503
222	0xbd876bb9	-0.06612343
223	0x3da13e86	0.078732535
224	0x3bcc5dda	0.006236774
225	0x3d1ebeda	0.03875623
226	0xbdb76d57	-0.08956402
227	0x3d3c3063	0.045944583
228	0xbddb118e	-0.10696708
229	0xbc927c82	-0.017881636
230	0xbd4f40a7	-0.050598767
231	0xbdcafbf2	-0.09911336
232	0x3d2bcb52	0.04194195
233	0xbd17cf7e	-0.037063114
234	0x3d307f73	0.043090295
235	0xbdbaa1ea	-0.09112914
236	0x3dc49d38	0.096002996
237	0xbdc39172	-0.09549226
238	0xbd747f3d	-0.059691656
239	0xbd80e288	-0.062932074
240	0xbd96a7bb	-0.07356211
241	0x3d0bafb8	0.034103125
242	0xbd06097a	-0.03272388
243	0x3d351344	0.044207826
244	0x3d445570	0.047933042
245	0x3dda526e	0.106602535
246	0xbd0f92ad	-0.03505199
247	0xbcdf34b5	-0.027246812
248	0xbde64fa2	-0.112456575
249	0xbc8a136c	-0.016854964
250	0x3de34482	0.11097051
251	0xbdabe083	-0.083924316
252	0xbd81e0e3	-0.06341722
253	0x3db75786	0.08952241
254	0x3d897c06	0.06713109
255	0x3dbcc3f6	0.09217064

module.rppg_feature_extractor.FeatureExtractor.1.conv_block_3d.0.weight f4 [12, 8, 3, 3, 3]
0	0xbd6677c0	-0.056266546
1	0x3d06b4aa	0.03288714
2	0x3d88108c	0.06643781
3	0xbd585b61	-0.05282152
4	0x3c7f4f71	0.015582905
5	0x3cb0c184	0.02157665
6	0xbc8d6e46	-0.017264497
7	0x3d22b802	0.039726265
8	0xbd9b0f4a	-0.075712755
9	0x3c1e5855	0.009664615
10	0xbce4c6ed	-0.027926886
11	0xbd613b1f	-0.054988023
12	0x3bdf5456	0.0068154735
13	0xbd98b0ba	-0.07455583
14	0x3cda94cb	0.026682278
15	0xbc1ff80c	-0.009763729
16	0x3c98cfc2	0.018653754
17	0x3c6a1cab	0.014289062
18	0x3d60bbde	0.054866664
19	0xbc15e515	-0.009148856
20	0x3bf6cf92	0.0075320685
21	0xbd451dfb	-0.048124295
22	0x3d8f0fb7	0.06985419
23	0xbd62f227	-0.055406716
24	0xbd60f79e	-0.054923646
25	0x3d925e45	0.07146887
26	0xbcb28db6	-0.021796089
27	0x3d0cdd60	0.034390807
28	0xbc5fc4ff	-0.013657807
29	0x3d3ee71b	0.046607118
30	0xbd9fbcc9	-0.0779968
31	0xbcf6af37	-0.030112846
32	0x3c1a509d	0.009418634
33	0xbc6f2464	-0.014596079
34	0xbd432c33	-0.047649574
35	0xbd648c4f	-0.05579787
36	0xbc45d821	-0.012075455
37	0x3d213368	0.039355665
38	0xbd3ed581	-0.046590332
39	0xbd515477	-0.051105943
40	0x3c83c6a8	0.016085938
41	0x3d2da403	0.042392742
42	0x3bf39b3a	0.007434276
43	0x3c088c19	0.008334183
44	0x3d234cb9	0.03986809
45	0x3d7c0321	0.06152642
46	0x3c1c6ad9	0.009546959
47	0x3d0a7297	0.033800688
48	0xbcb0ace6	-0.02156682
49	0x3caa2d14	0.020773448
50	0x3c7fa121	0.015602381
51	0x3cd8f417	0.026483579
52	0x3cce5dc6	0.025191199
53	0xbaa387e7	-0.0012476415
54	0x3d52bcff	0.051449772
55	0x3c4df984	0.012571696
56	0xbd563abd	-0.05230211
57	0xbc5d4390	-0.013504878
58	0xbd11f7bb	-0.035636645
59	0xbd982c33	-0.07430305
60	0xbb92f2db	-0.004484517
61	0xbb204245	-0.0024453562
62	0xbc844d0b	-0.016150018
63	0xbd73b504	-0.0594988
64	0xbd463fb7	-0.048400607
65	0xbd0afdf0	-0.03393358
66	0xbd898b10	-0.06715977
67	0x3d4bb52e	0.049733333
68	0x3d4750b8	0.048660964
69	0x3d28d870	0.041222036
70	0xbd754b0f	-0.059886035
71	0xbd82f8ad	-0.063950874
72	0xbc2d1f86	-0.010566598
73	0xbd031ccd	-0.03200989
74	0xbd3c4225	-0.045961518
75	0x3d5a4296	0.053286158
76	0x3d34503b	0.044021826
77	0xbbc4cf34	-0.006006146
78	0xbc6acac3	-0.014330569
79	0x3d5c8c7f	0.053844925
80	0xbca348de	-0.019932207
81	0xbd6fdf8b	-0.058562797
82	0x3c85db7a	0.016340006
83	0x3d29a316	0.041415296
84	0x3d8b6129	0.06805641
85	0x3d7f1dd5	0.06228431
86	0x3c2ae5b3	0.010430741
87	0x3d20e6c4	0.039282575
88	0x3bad38a7	0.0052862945
89	0x3ce55591	0.027994903
90	0x3d26aaad	0.040690113
91	0xbd548a6e	-0.05188983
92	0x3d2dbf79	0.04241893
93	0x3d1230a8	0.035690933
94	0x3bbd7a49	0.0057824
95	0xb8ce8ae2	-9.8487144e-05
96	0xbd740e6b	-0.059584063
97	0x3c1802f8	0.009278052
98	0xbce8e0c1	-0.028427484
99	0xbbeea970	-0.007283382
100	0x3d583a19	0.05278978
101	0xbbc047e0	-0.005867943
102	0x3c919b28	0.01777418
103	0x3d725407	0.059162166
104	0xbaba8754	-0.0014231005
105	0xbd3f683b	-0.04673026
106	0x3c126f6a	0.008937696
107	0x3d5c5884	0.053795353
108	0xbd90fb46	-0.070791766
109	0x3c5bd263	0.013416859
110	0x3ca5af7a	0.020225275
111	0xbd63de92	-0.05563218
112	0xbc856b46	-0.016286504
113	0xbd5796b4	-0.052633956
114	0x3ccd8151	0.025086077
115	0x3cd0df85	0.025497207
116	0xbdae8405	-0.085212745
117	0xbc85f6a2	-0.016352955
118	0x3cddf6e9	0.027095275
119	0xbc1131d5	-0.008861979
120	0xbccb99f9	-0.024853693
121	0xbd78d024	-0.060745373
122	0xbc898e91	-0.016791614
123	0x3d16808a	0.03674368
124	0xbc3bdf54	-0.01146682
125	0xbd0e0646	-0.03467395
126	0xbca8c851	-0.02060333
127	0xbcc88174	-0.02447579
128	0xbd2b7654	-0.041860893
129	0xbd0abeed	-0.033873487
130	0x3ce7041d	0.028200204
131	0x3c3f8afc	0.011690851
132	0xbcb10056	-0.021606605
133	0x3d727d27	0.059201386
134	0xbcb69185	-0.022286186
135	0xbc94f6eb	-0.018184146
136	0xbd7f6987	-0.062356498
137	0xbd1fe13f	-0.03903317
138	0x3ccdbd37	0.025114639
139	0x3a8e9142	0.001087703
140	0x3bac13b4	0.0052513722
141	0x3d351149	0.044205938
142	0x3d53b676	0.05168768
143	0xbd1e5c0e	-0.03866201
144	0xbd0d2cca	-0.034466542
145	0x3d2a236a	0.04153768
146	0xbd5dc1d8	-0.054139942
147	0xbd5c3db8	-0.053769797
148	0xbbc88711	-0.006119617
149	0x3ba6789e	0.0050802967
150	0xbca3270a	-0.019916076
151	0x3d0ddf03	0.03463651
152	0xba1f0e72	-0.0006067521
153	0xbbcc51ea	-0.006235351
154	0xbd2145c1	-0.039373163
155	0xbadf29d8	-0.001702602
156	0x3d0775d1	0.033071343
157	0xbcc598a3	-0.024120634
158	0xbd8beb5a	-0.06831999
159	0x3c25b35a	0.0101135615
160	0xbb8c10a0	-0.004274443
161	0x3d1569c8	0.036477834
162	0xbcc12827	-0.023578716
163	0x3d9774ee	0.073953494
164	0xbc303091	-0.010753767
165	0x3c535fae	0.01290123
166	0x3d60239c	0.05472146
167	0x3d907686	0.070538566
168	0x3b90cf99	0.004419279
169	0x3d878ffc	0.0661926
170	0xbccb72e0	-0.02483505
171	0xbc953194	-0.018212117
172	0x3da92660	0.082592726
173	0xbc6af305	-0.014340167
174	0x3d803999	0.06260986
175	0x3d2e45af	0.042546924
176	0x3cc739ed	0.024319613
177	0xbd0b219b	-0.033967596
178	0xbd5503bb	-0.05200551
179	0x3b89090b	0.004181986
180	0x3da319f4	0.079639345
181	0x3d235a65	0.03988113
182	0xbc3d634d	-0.01155932
183	0xbcbd8113	-0.023132836
184	0x3ccd014a	0.025025029
185	0x3d1038f1	0.035210554
186	0x3d424c98	0.047436327
187	0xbd0d4d1c	-0.034497365
188	0x3d59ad3c	0.053143725
189	0xbc1e771f	-0.009671955
190	0x3ccfcb4f	0.0253655
191	0x3d7759a3	0.06038822
192	0x3d1e9ad8	0.03872189
193	0xbd19c00c	-0.037536666
194	0x3aeabc2e	0.0017908865
195	0x3ca44434	0.020052053
196	0x3ab18959	0.0013544961
197	0xbbfbe8ba	-0.0076876553
198	0xbce320ec	-0.02772566
199	0xbd66fd45	-0.05639388
200	0xbcc9ed33	-0.024649238
201	0xbbc657dc	-0.006052954
202	0x3d5f0974	0.054452375
203	0x3d0a1e70	0.033720434
204	0xbc6a537d	-0.014302132
205	0xbd0ad11d	-0.033890832
206	0xbc97fc9a	-0.018553067
207	0xbd151a41	-0.03640199
208	0xbc96265c	-0.018328838
209	0x3c0953af	0.008381768
210	0xbd5481f3	-0.05188174
211	0xbc9c5cb8	-0.01908718
212	0x3c80ad82	0.015707735
213	0x3cbbf948	0.022946015
214	0x3d725712	0.059165068
215	0x3d5258de	0.05135428
216	0x3c472374	0.012154449
217	0xbd11a777	-0.035560098
218	0x3d07fdaf	0.033200916
219	0xbbaa86f5	-0.0052040764
220	0x3d6068d8	0.054787487
221	0x3c81576f	0.015788762
222	0xbc2f1167	-0.010685301
223	0x3db2b048	0.08725029
224	0xbbd98061	-0.0066376184
225	0xbc378d0d	-0.011203063
226	0x3d2490e5	0.040177245
227	0x3c567e53	0.0130916415
228	0xbd38bf3a	-0.045104243
229	0x3cba84e4	0.022768445
230	0x3d6dd543	0.05806471
231	0x3c905c21	0.017622055
232	0x3c0a49e5	0.008440469
233	0xbcbd0d94	-0.023077764
234	0x3d8c2a3e	0.068439946
235	0xbd3395fd	-0.04384421
236	0x3d00b5a5	0.03142323
237	0x3bfd4e86	0.007730308
238	0xbd740bd6	-0.0595816
239	0x3ca53792	0.0201681
240	0x3c519cda	0.012793744
241	0x3c286bff	0.0102796545
242	0xbd357783	-0.04430343
243	0xbd4f1033	-0.05055256
244	0xbc95f5f7	-0.018305762
245	0xbc09e8ab	-0.008417289
246	0x3d5d1baf	0.05398148
247	0xbccda451	-0.025102766
248	0x3d10f0ca	0.035385884
249	0xbcd7372f	-0.02627143
250	0xbccce7fd	-0.025012964
251	0xbd1acb5b	-0.03779159
252	0xbc367fb9	-0.01113885
253	0xbca48327	-0.02008207
254	0x3d8c1365	0.06839637
255	0x3d94697e	0.072466835

module.rppg_feature_extractor.FeatureExtractor.2.conv_block_3d.0.weight f4 [12, 12, 3, 3, 3]
0	0xbc87c3b1	-0.016572805
1	0x3b4f5db4	0.0031641545
2	0x3cbd2393	0.023088252
3	0x3d665474	0.056232885
4	0x3cb3d64e	0.021952774
5	0x3d455b6d	0.048182894
6	0x3cc1f996	0.023678582
7	0x3d48e13e	0.049042933
8	0x3bb72f3f	0.005590349
9	0x3d2f11e5	0.042741675
10	0x3c2e0865	0.010622119
11	0x3c05e05d	0.008171168
12	0x3cce010e	0.025146987
13	0x3d80b29f	0.06284069
14	0x3cd75444	0.026285298
15	0xbc4482b9	-0.011994057
16	0x3d17045f	0.036869403
17	0x3d587d07	0.05285361
18	0x3c6ed619	0.014577412
19	0x3c915f0f	0.017745523
20	0x3bd5ae1c	0.0065209996
21	0x3d2e0604	0.042486206
22	0xbc5172f6	-0.0127837565
23	0x3ccc05be	0.024905082
24	0xbc985039	-0.01859294
25	0xbcebe0c3	-0.028793698
26	0x3c152a6b	0.0091043515
27	0x3d67f916	0.05663403
28	0xbd0fdab5	-0.035120685
29	0xbd4881ec	-0.04895203
30	0x3cd15197	0.0255516
31	0x3c3a54bf	0.011372744
32	0x3d3ddf11	0.04635531
33	0x3cb12839	0.021625625
34	0xbd6eefd5	-0.05833419
35	0xbd187dd4	-0.037229374
36	0x3b4d4fa6	0.0031327992
37	0xbc167b19	-0.009184622
38	0x3bd5c298	0.0065234415
39	0x3c8ba833	0.017047977
40	0xbc3fabc2	-0.011698665
41	0x3c863718	0.016383693
42	0xbcea16c6	-0.028575312
43	0xbcb38343	-0.021913176
44	0xbd35e0e9	-0.044403944
45	0xbd323bd4	-0.043514088
46	0xbd3c8491	-0.046024863
47	0x3d1c1220	0.038103223
48	0x3d50c835	0.050972182
49	0x3d15c127	0.036561158
50	0x3d3d5c19	0.04623041
51	0xbd1cb8c6	-0.03826215
52	0xbb7ae3fc	-0.0038282862
53	0x3cd0df9f	0.025497256
54	0x3cd23c3b	0.025663486
55	0x3bad2d8c	0.0052849706
56	0xb7e7e929	-2.764592e-05
57	0xbd3ba67c	-0.04581307
58	0xbd0e7c1d	-0.034786332
59	0xbc836827	-0.016040875
60	0x3d1bac29	0.03800598
61	0xbd353f1b	-0.044249635
62	0xbcda0a07	-0.02661611
63	0xbd3470c1	-0.044052843
64	0x3d0b121f	0.03395283
65	0x3d2562b2	0.040377326
66	0xbb3b6edc	-0.0028600013
67	0xbce4b2c3	-0.027917271
68	0x3caaca36	0.020848375
69	0xbca9dbbc	-0.02073466
70	0x3cb297ff	0.021800993
71	0xbcad2eb4	-0.021140434
72	0xbcc7cd28	-0.024389818
73	0xbc2956db	-0.010335649
74	0xbd31fd6e	-0.04345458
75	0x3c995a66	0.018719863
76	0x3b66ccb9	0.003521724
77	0xbd2b4dc3	-0.041822206
78	0xbce42275	-0.027848462
79	0xbd83b119	-0.06430263
80	0x3c7dc0da	0.015487874
81	0xbbdc826d	-0.006729415
82	0xbd411f76	-0.047149144
83	0x3bb97063	0.0056591495
84	0xbc2ecfed	-0.010669691
85	0xbbf5fcf0	-0.007506959
86	0xbd480173	-0.048829507
87	0x39ba50e6	0.0003553696
88	0xbac7ca53	-0.0015242792
89	0xbc101719	-0.008794569
90	0x3d536662	0.05161131
91	0x3d5d09f0	0.053964555
92	0x3c25f8e4	0.010130141
93	0xbd337ebc	-0.043822035
94	0x3d094f7f	0.03352308
95	0xbcd159d2	-0.025555525
96	0xbd1eb094	-0.038742617
97	0xbd1feb42	-0.03904272
98	0x3d53fd99	0.05175552
99	0x3d7ebc81	0.06219149
100	0x3cc01ea8	0.023452118
101	0x3d1f7a73	0.038935136
102	0xbd44e108	-0.04806617
103	0x3d68d36b	0.05684225
104	0xbd1ab9ba	-0.03777478
105	0xbd4eb779	-0.050467942
106	0x3cc4af0c	0.02400925
107	0xbd64db1d	-0.055873025
108	0xbcd7cb48	-0.02634205
109	0xbd4e7c9e	-0.050411813
110	0x3c1c178f	0.009527101
111	0x3c852c07	0.016256345
112	0xbd4720aa	-0.048615135
113	0xbca4bc7b	-0.020109406
114	0xbca13db7	-0.019682748
115	0x3c52e0ec	0.012871008
116	0x3c884721	0.01663548
117	0x3c6cfde5	0.01446483
118	0xbd2f043f	-0.04272866
119	0x3cc96468	0.02458401
120	0xbcfdd15b	-0.030983618
121	0xbc820f03	-0.015876299
122	0xbd66ee3c	-0.05637954
123	0xbd2bd6b3	-0.0419528
124	0x3d18551f	0.037190553
125	0xbc9ca92f	-0.019123642
126	0xbcb577c9	-0.022151845
127	0x3c3c73ca	0.011502216
128	0xbd837b2f	-0.0641998
129	0x3ba64a89	0.0050748033
130	0xbbcb156a	-0.006197621
131	0x3d0984b1	0.03357381
132	0xbcbe86f0	-0.023257703
133	0x3cedbf78	0.029021963
134	0xbd185245	-0.037187833
135	0xbc236e9f	-0.009975105
136	0x3d1c1f59	0.038115833
137	0x3c355fe2	0.0110702235
138	0x3c026163	0.007957789
139	0x3d62dad6	0.05538448
140	0xbd299646	-0.041403078
141	0xbd09eaa8	-0.03367105
142	0xbcc9fdf1	-0.024657222
143	0x3d04aaa6	0.032389306
144	0xbcfe151b	-0.031015923
145	0xbd004488	-0.031315356
146	0x3c9f6687	0.019458069
147	0x3d24a491	0.040196005
148	0x3d292e7a	0.04130409
149	0x3c56aab0	0.0131022185
150	0x3cd13306	0.025537025
151	0xbd04c469	-0.032413874
152	0x3cd0dd82	0.025496248
153	0x3b52e4b1	0.0032179768
154	0x3c8b40d7	0.016998691
155	0xbbc2f34b	-0.005949413
156	0xbc249826	-0.010046041
157	0xbc247ddc	-0.010039773
158	0xbc935475	-0.017984608
159	0xbc31f244	-0.010860983
160	0x3d243435	0.04008885
161	0x3d6dff8c	0.058105037
162	0xbb40b6ea	-0.00294059
163	0x3c52cb79	0.0128658945
164	0xbd287e18	-0.041135877
165	0x3c908ef1	0.017646285
166	0x3d392f9a	0.045211412
167	0xbcd4fdd4	-0.025999941
168	0xbc446ef6	-0.011989346
169	0xbd70bc4b	-0.05877332
170	0x3c97d398	0.018533513
171	0x3d221cdf	0.039578315
172	0xbc97e664	-0.018542476
173	0xbce5d25f	-0.028054414
174	0x3c0ba553	0.008523303
175	0xbd051e34	-0.032499507
176	0xbbe13f7c	-0.006874023
177	0xbc3d69b1	-0.011560843
178	0xbc00c5b3	-0.007859635
179	0xbcdf8740	-0.027286172
180	0x3b3dbb2e	0.002895068
181	0xbcbabd80	-0.022795439
182	0x3d26e094	0.04074152
183	0x3d058f96	0.032607637
184	0x3d381288	0.044939548
185	0xbd1c62e2	-0.03818024
186	0xbcfa0b95	-0.0305231
187	0x3c309ad9	0.010779106
188	0xbd677c5c	-0.056515083
189	0xbd392245	-0.045198698
190	0x3cfebf85	0.031097183
191	0x3d263a7e	0.040583126
192	0x3cffa130	0.03120479
193	0x3d57c92d	0.05268209
194	0xbd04737e	-0.032336704
195	0x3d030e99	0.031996343
196	0x3cba9644	0.02277673
197	0x3c156242	0.009117665
198	0x3c0930a6	0.008373415
199	0xbd2e6de4	-0.04258527
200	0x3c52805b	0.012847985
201	0xbab377c4	-0.0013692309
202	0x3d610aef	0.054942068
203	0x3d2a9340	0.041644335
204	0x3d7b591a	0.06136427
205	0xbd39e2f1	-0.045382444
206	0x3d07c20e	0.03314405
207	0xba0eccbc	-0.0005447378
208	0xbbedcbf9	-0.0072569815
209	0x3cd686fd	0.026187414
210	0x3a345237	0.0006878706
211	0x3d886ace	0.066609964
212	0x3d518bea	0.051158823
213	0x3d5170e4	0.05113305
214	0x3c00fca8	0.007872738
215	0x3d2a9cd7	0.04165348
216	0x3d021857	0.031761494
217	0x3c8423cd	0.016130352
218	0xbced96d5	-0.029002586
219	0xbd393868	-0.04521981
220	0x3d28b642	0.04118944
221	0xbd473ac6	-0.048640035
222	0xbd47004b	-0.048584264
223	0x3d47bf7f	0.04876661
224	0x3d10786f	0.035271104
225	0x3d20af5d	0.03922974
226	0x3c2b9bf4	0.010474194
227	0x3cb1e019	0.021713303
228	0xbd0e1179	-0.034684632
229	0x3d6bd4d1	0.057576004
230	0xbd4d3a1f	-0.050104257
231	0x3d33096f	0.04371017
232	0x3c67f2c4	0.014157001
233	0xbd049730	-0.032370746
234	0x3d2a960e	0.04164701
235	0x3bb8be31	0.005637907
236	0x3d6f5a58	0.058435768
237	0xbc1c2ecf	-0.009532644
238	0x3d061fbf	0.03274512
239	0x3cb70463	0.022340959
240	0xbc9e7be3	-0.019346183
241	0xbb27ff0e	-0.0025634202
242	0x3d03da66	0.032190703
243	0xbc5d316e	-0.0135005545
244	0x399b5a50	0.00029631192
245	0xbcf1fc3d	-0.029539222
246	0x3c769e70	0.015052423
247	0xbd196da0	-0.037458062
248	0xbb668f29	-0.0035180545
249	0xbce92a1c	-0.028462462
250	0xbc2fe9a5	-0.010736858
251	0xbd109eab	-0.035307568
252	0x3ce3da9b	0.0278142
253	0x3cc7c780	0.024387121
254	0x3d41974f	0.04726344
255	0x3cd92fcc	0.02651205

module.rppg_feature_extractor.FeatureExtractor.4.conv_block_3d.0.weight f4 [12, 12, 3, 3, 3]
0	0x3c37bc28	0.011214294
1	0xbd3badcf	-0.045820054
2	0x3d53ce44	0.051710382
3	0x3c4ec234	0.012619544
4	0xbcdbbc24	-0.02682311
5	0x3c3c235d	0.011483041
6	0x3d0bf75b	0.034171443
7	0xbcfd9ab0	-0.03095755
8	0x3ce7d6eb	0.028300723
9	0xbd297d1f	-0.04137909
10	0x3d2e86a2	0.042608865
11	0x3d114b5f	0.03547227
12	0xbd4384aa	-0.04773394
13	0x3ce590d9	0.02802317
14	0x3d4bc9ff	0.049753185
15	0xbd2c8e0f	-0.042127665
16	0xbc63f38d	-0.0139130475
17	0xbac6de05	-0.0015172368
18	0xbd1fba40	-0.03899598
19	0xbd05b111	-0.032639567
20	0xbc8fed87	-0.017569317
21	0xbd185374	-0.037188962
22	0xbd1aaf73	-0.037764978
23	0x3cdcb7f5	0.026943186
24	0xbd4d9d11	-0.05019862
25	0xb9fa3593	-0.00047723632
26	0xbd0929af	-0.03348702
27	0xbb09ed40	-0.0021045953
28	0xbd012fc0	-0.03153968
29	0x3cd48d21	0.025946202
30	0x3ce6f423	0.028192585
31	0xbcf9c834	-0.030490972
32	0xbd248377	-0.040164437
33	0x3ba4f9dd	0.005034669
34	0xbd90e7a1	-0.0707543
35	0xbbaaa9d3	-0.005208233
36	0x3b93c520	0.004509583
37	0xbcafd8a6	-0.02146561
38	0x3c87a5c2	0.016558532
39	0xbd58f803	-0.052970897
40	0xbcd41ea7	-0.025893522
41	0x3cb10b19	0.021611737
42	0xbd1a3032	-0.03764362
43	0xbcd94d79	-0.0265262
44	0xbc60dfbe	-0.013725219
45	0xbc277a16	-0.010221979
46	0x3d3c9c64	0.046047583
47	0xbb27f215	-0.002562647
48	0x3d0555aa	0.0325524
49	0xbd44f914	-0.048089102
50	0xbcc76fa6	-0.02434523
51	0xbd51ac27	-0.051189568
52	0x3c127715	0.008939524
53	0xbbb6d819	-0.00557996
54	0x3c33e074	0.010978807
55	0x3c13cade	0.009020535
56	0x3ceadff5	0.028671244
57	0xbc46b6af	-0.012128516
58	0x3c11b4ae	0.008893175
59	0xbc304056	-0.010757526
60	0x3cb523ec	0.022111855
61	0x3d49de9e	0.04928457
62	0x3d2f3045	0.042770643
63	0x3c02da48	0.007986613
64	0xbd659a9c	-0.05605565
65	0x3c80bd5b	0.015715292
66	0x3b9f19a4	0.0048553515
67	0xbd40a2ff	-0.047030445
68	0x3d2a0954	0.041512802
69	0x3c3b8275	0.011444678
70	0x3cde2c5f	0.027120767
71	0xbd31b518	-0.043385595
72	0xbc362818	-0.0111179575
73	0xbc64c66e	-0.013963325
74	0xbb98666e	-0.0046508824
75	0x3c98297f	0.018574474
76	0xbd654f91	-0.055984084
77	0x3c3f9da4	0.011695299
78	0xbb2a9802	-0.0026030545
79	0xbc023da9	-0.007949271
80	0x3d231e3a	0.03982375
81	0x3d6a6342	0.057223566
82	0xbcf353b3	-0.029702997
83	0xbd3bb6f5	-0.04582878
84	0x3d22b590	0.039723933
85	0x3d1769e7	0.03696623
86	0x3d098a46	0.033579133
87	0xba65ec06	-0.0008770827
88	0x3d57f5c4	0.052724615
89	0x3d223a81	0.039606575
90	0x3c8b7805	0.017025003
91	0xbcdea197	-0.027176661
92	0xbb9b8a3d	-0.004746704
93	0xbc406d3e	-0.011744795
94	0x3d57c230	0.052675426
95	0xbce3ce82	-0.027808432
96	0xbcaed30c	-0.02134087
97	0xbcf36f80	-0.029716253
98	0x3c0a2a07	0.008432872
99	0xbd50b046	-0.050949357
100	0x3d5888e1	0.052864913
101	0xbd5cfcb0	-0.05395192
102	0xbca817f7	-0.02051924
103	0x3d5ea4b7	0.054356303
104	0x3d1c4b8d	0.03815799
105	0xba8fb162	-0.0010962898
106	0xbbf44bde	-0.007455333
107	0xbc681992	-0.014166253
108	0xbc9fa372	-0.019487116
109	0x3d3447b9	0.044013713
110	0xbd3085e7	-0.04309645
111	0x3d3f8e63	0.04676665
112	0xbca2a740	-0.019855142
113	0x3ce249bd	0.027623052
114	0xbd7ba9a9	-0.061441097
115	0x3c0818cb	0.008306692
116	0xbd9bee50	-0.07613814
117	0x3caa91c9	0.020821469
118	0x3d558927	0.05213275
119	0xbcb9a38d	-0.022660995
120	0x3d30302b	0.043014687
121	0x3c8dfbc0	0.017331958
122	0xbd4d7f0a	-0.050169982
123	0xbc5c05c1	-0.013429106
124	0x3d2e1f8f	0.042510565
125	0x3cb070c1	0.02153814
126	0xbbe5d403	-0.007013799
127	0x3d16e20a	0.03683666
128	0xbd21098a	-0.039315738
129	0x3d625c85	0.055264015
130	0xbbccbeb8	-0.0062483214
131	0xbcd7a9bd	-0.026326055
132	0xbbdb8bc7	-0.0067000124
133	0x3d5b1411	0.053485934
134	0xbd0a9b99	-0.033839796
135	0xbc47685a	-0.012170875
136	0xbc3498c8	-0.011022754
137	0x3cfe3569	0.031031327
138	0xbd21885f	-0.039436694
139	0x3d17e836	0.037086688
140	0xbd77d5e9	-0.060506735
141	0xbd77b5c6	-0.060476087
142	0xbc60cb6b	-0.013720374
143	0xbcdcfa5b	-0.026974848
144	0xbd647c99	-0.055782888
145	0x3b55cdcb	0.0032623883
146	0xbc61c0b1	-0.013778851
147	0xbd1dd9a0	-0.03853762
148	0xbd3e2ab7	-0.046427455
149	0x3cdca3f5	0.02693365
150	0x3cbab00d	0.022789026
151	0xbd01d627	-0.031698372
152	0x3c58a4e1	0.013222904
153	0x3d572588	0.052526027
154	0xbd1c32aa	-0.038134255
155	0xbd040e0a	-0.03223995
156	0xbd357417	-0.044300165
157	0xbcac5050	-0.02103439
158	0x3d1c38f6	0.03814026
159	0x3c42f2b2	0.011898683
160	0xbbb2fea0	-0.0054624826
161	0xbd40c228	-0.04706016
162	0xbb3f919b	-0.0029231075
163	0x3d55b11b	0.052170854
164	0xbcebecf3	-0.02879951
165	0x3d268d3b	0.04066203
166	0x3d4262e0	0.047457576
167	0xbc8fb00f	-0.017540006
168	0x3c023d2d	0.007949156
169	0x3d815ce4	0.063165456
170	0x3d415f4a	0.047210015
171	0xbc01f35b	-0.007931556
172	0x3d5a9f4b	0.05337457
173	0xbd094b90	-0.033519328
174	0xbc5bdbb5	-0.013419081
175	0x3a5c269f	0.0008398089
176	0x3bf4b571	0.0074679186
177	0x3d094a29	0.03351799
178	0xbd34d704	-0.044150367
179	0x3d4d667d	0.05014657
180	0xbcc239e7	-0.02370925
181	0xb988fd7d	-0.00026128805
182	0xbd534c8d	-0.051586676
183	0x3c14e6ae	0.009088201
184	0x3d1a904e	0.037735276
185	0xbd435590	-0.04768902
186	0xbc84eba5	-0.016225645
187	0xbcb59c81	-0.022169353
188	0x3c3f6d55	0.011683782
189	0xbd1f6387	-0.038913276
190	0x3c9d8920	0.019230425
191	0x3c85578f	0.016277103
192	0x3c46ae34	0.012126494
193	0x3d0c1577	0.034200158
194	0xbd41deb8	-0.04733154
195	0xbc24d202	-0.010059835
196	0xbad1fc75	-0.0016020673
197	0xbd2aac9b	-0.041668516
198	0x3a3fba0e	0.0007313796
199	0x3c762670	0.015023813
200	0x3d6ee048	0.05831936
201	0x3cdc46b2	0.026889179
202	0xbbe6549c	-0.007029129
203	0x3cef2484	0.029192217
204	0x3c92c277	0.017914994
205	0xbcf186e4	-0.029483266
206	0x3d23161e	0.039816014
207	0x3bed7af6	0.007247324
208	0xbc9261dc	-0.017868929
209	0xbd33ac53	-0.043865513
210	0xbd5bfe18	-0.05370912
211	0xbaef45fc	-0.001825511
212	0x3cc8491b	0.024448922
213	0x3c8b3977	0.016995175
214	0x3c664a47	0.014055795
215	0xbd5a816e	-0.05334609
216	0x3d516bb8	0.05112812
217	0xbca64645	-0.020297179
218	0xbc78ab7b	-0.015177603
219	0x3c752445	0.014962261
220	0xbd00d95a	-0.031457283
221	0xbbfa92e3	-0.007646905
222	0xbcf1e60f	-0.029528646
223	0xbd829d9a	-0.06377716
224	0xbd51ea90	-0.051249087
225	0xbd04a5e7	-0.03238478
226	0xbd2d6408	-0.042331725
227	0xbcc50f19	-0.02405505
228	0x3cf96caf	0.030447332
229	0x3c032a4f	0.008005693
230	0x3d05a2a5	0.032625813
231	0xbd02827b	-0.031862717
232	0x3c7a820d	0.015289796
233	0xbd5f3248	-0.05449131
234	0xbcf79044	-0.030220158
235	0x3d74a142	0.0597241
236	0xbc886652	-0.016650353
237	0x3c54a7c2	0.01297945
238	0x3bfd22f3	0.0077251135
239	0xbb5ce215	-0.0033704091
240	0xb9c9aee2	-0.00038468005
241	0xbbaa8683	-0.0052040233
242	0x3d7224fc	0.059117302
243	0x3cc2ecfb	0.023794642
244	0xbd2d415f	-0.04229867
245	0x3b8b83f4	0.0042576734
246	0xbc92b0c1	-0.017906548
247	0x3b3e9c77	0.002908496
248	0x3d2b0848	0.041755944
249	0x3d0da480	0.034580708
250	0x3c88d042	0.016700868
251	0xbd5049f6	-0.050851785
252	0xbc09b2d5	-0.008404453
253	0x3c8336b2	0.016017292
254	0x3c97114f	0.01844087
255	0x3c9600f0	0.018310994

module.rppg_feature_extractor.FeatureExtractor.5.conv_block_3d.0.weight f4 [16, 12, 3, 3, 3]
0	0xbd417803	-0.047233593
1	0xbcc94ec0	-0.024573684
2	0x3ba8298c	0.005131906
3	0xbc3622fb	-0.011116738
4	0x3d39ada7	0.045331623
5	0x3cf62731	0.030047985
6	0x3cef5d86	0.0292194
7	0x3ccb79db	0.024838379
8	0x3d2d9938	0.04238245
9	0xbc6587ff	-0.014009475
10	0xbc04af08	-0.008098371
11	0x3b290a9f	0.0025793684
12	0x3c9da52b	0.019243797
13	0x3ce31797	0.02772121
14	0x3c1dffd4	0.009643514
15	0x3ce7a106	0.028275024
16	0x3c4ce6ac	0.012506168
17	0xbd5b4c1b	-0.053539377
18	0xbc6174b2	-0.0137607325
19	0xbc9df920	-0.019283831
20	0xbd4ecc07	-0.050487544
21	0x3d1ac3a5	0.037784237
22	0x3c2560ab	0.010093848
23	0xbca8d4c5	-0.020609269
24	0xbc9bdc82	-0.019026045
25	0xbd51ef02	-0.051253326
26	0xbd4939df	-0.049127456
27	0xbcc19e90	-0.023635179
28	0xbd0cdc1c	-0.0343896
29	0xbcf2fcc1	-0.029661538
30	0xbd5fdf24	-0.054656163
31	0xbd143b77	-0.036189523
32	0xbcdbe90a	-0.02684452
33	0xbd1d8e26	-0.03846564
34	0x3c82c7ae	0.015964355
35	0xbcfb0493	-0.03064183
36	0xbc95fdff	-0.018309591
37	0xbd0965f0	-0.03354448
38	0x3c7307b3	0.014833379
39	0xbbae0272	-0.00531035
40	0xbd1fb026	-0.038986348
41	0x3b3d8a0b	0.0028921391
42	0xbc2976bf	-0.010343253
43	0xbc82d669	-0.01597138
44	0x3b6af378	0.0035850685
45	0x3c24248d	0.01001848
46	0xbcfd5010	-0.030921966
47	0xbcb264f8	-0.021776661
48	0xbca4c55f	-0.020113645
49	0x3d264e3a	0.040601946
50	0x3ce1990f	0.027538804
51	0x3d381131	0.04493827
52	0x3ce97e81	0.028502705
53	0xbc42cf97	-0.011890314
54	0xbb83619c	-0.0040094387
55	0xbd4a01fd	-0.049318302
56	0x3d19b40f	0.037525233
57	0xbc36bc7a	-0.011153335
58	0xbc7a0b4d	-0.015261483
59	0x3d4a592c	0.049401447
60	0xbd434ecc	-0.04768257
61	0xbc1e3072	-0.009655105
62	0x3d2cce3c	0.042188868
63	0x3d2078be	0.03917765
64	0x3d15421f	0.03644001
65	0xbb285418	-0.002568489
66	0xba8ce143	-0.0010748286
67	0xbd568bd3	-0.05237944
68	0x3c1317dc	0.0089778565
69	0xbcaa1a3a	-0.020764459
70	0xbc50d0b3	-0.01274507
71	0xbd3f8a62	-0.04676283
72	0x3d03ea45	0.03220584
73	0x3d6ea232	0.05826015
74	0x3d814f08	0.06313902
75	0xbb9979c1	-0.0046837036
76	0xbc189c96	-0.009314677
77	0x3cd3ca34	0.025853254
78	0x3d3d63cd	0.046237756
79	0x3ceb746f	0.028742043
80	0x3ca7e2b2	0.020493839
81	0x3d400b03	0.0468855
82	0xbcf6debd	-0.030135507
83	0xbce3f8ed	-0.027828658
84	0xbc92c8ad	-0.017917955
85	0xbd515fb6	-0.051116668
86	0xbcdf29ae	-0.027241554
87	0xbd50645a	-0.050876953
88	0xbd2f5f92	-0.042815752
89	0x3d264008	0.04058841
90	0xbd0db120	-0.034592748
91	0x3d048d77	0.032361474
92	0xbd460628	-0.048345715
93	0xbd415f57	-0.047210064
94	0x3a78c3b9	0.0009489614
95	0xbd49621e	-0.049165837
96	0x3c03103a	0.007999474
97	0xbce13a1e	-0.027493533
98	0x3c89cc06	0.016820919
99	0xbceb3284	-0.028710611
100	0x3c2c4081	0.010513426
101	0xbc9528d0	-0.018207937
102	0xbd2deee2	-0.042464145
103	0xbd8fb220	-0.070163965
104	0xbd44fc99	-0.04809246
105	0xbd2b6a49	-0.04184941
106	0xbcaaa26d	-0.020829404
107	0x3d081020	0.033218503
108	0xbcb5975a	-0.022166897
109	0x3c825a5e	0.015912231
110	0xba08e34b	-0.00052218576
111	0x3caf6904	0.02141238
112	0x3c61a7f1	0.0137729505
113	0x3cc403c8	0.023927584
114	0xbd59f676	-0.05321356
115	0xbd803d14	-0.0626165
116	0x3ac9db42	0.0015400427
117	0xbc3fcd3d	-0.011706647
118	0xbd21b2a4	-0.039477006
119	0x3cb518c1	0.02210653
120	0xbce9a4c9	-0.028520958
121	0xbc5dc191	-0.013534919
122	0x3d15d172	0.036576696
123	0x3c871b74	0.016492583
124	0xbbe8716b	-0.0070935986
125	0x3b96ef2f	0.0046061496
126	0xbc1e499e	-0.009661106
127	0xbd2c99b5	-0.042138774
128	0xbd67022b	-0.056398552
129	0xbd889a07	-0.066700034
130	0xbd26a419	-0.04068384
131	0xbd118e88	-0.03553632
132	0x3ce46c5a	0.027883697
133	0xbcc9efbd	-0.024650449
134	0x3b90c804	0.004418375
135	0xbb269c8c	-0.00254229
136	0xbba2e133	-0.0049706935
137	0x3b83e9f0	0.0040256903
138	0xbd4a30fb	-0.049363118
139	0x3c49ce6c	0.012317281
140	0x3d37e10f	0.044892367
141	0x3d035bb7	0.032069888
142	0x3d26c647	0.040716436
143	0x3cde2103	0.02711535
144	0xbcc34f2b	-0.023841461
145	0x3c8df771	0.017329903
146	0xbc963190	-0.01833418
147	0x3d2e07d9	0.042487953
148	0x3d7391e7	0.059465315
149	0x3c8f51a3	0.017494982
150	0xbd5db8cb	-0.05413131
151	0xbca8d21e	-0.020608004
152	0xbb851abd	-0.0040620253
153	0xbb6993a4	-0.003564098
154	0xbd2f15c0	-0.04274535
155	0x3bc66af2	0.0060552293
156	0xbca6ed60	-0.020376861
157	0x3ce4f5ca	0.027949233
158	0x3d2cc5f5	0.042180974
159	0x3ad4badb	0.0016230004
160	0xbc0a780b	-0.008451472
161	0x3cd1e7c7	0.025623215
162	0xbd86daa4	-0.06584671
163	0xbc4bd2f6	-0.012440434
164	0xbc9790bb	-0.01850163
165	0x3cfc2228	0.030778006
166	0xbd009fe4	-0.031402484
167	0x3ced79c7	0.028988732
168	0xbd53f008	-0.051742584
169	0x3ca60ea8	0.02027066
170	0xbd1efb16	-0.038813673
171	0x3c714e7d	0.014728186
172	0xbd2e87e8	-0.04261008
173	0xbcd81679	-0.026377903
174	0x3ca6f8a0	0.020382226
175	0x3d204a0f	0.039133128
176	0xbc85f432	-0.016351793
177	0x3ced3f86	0.028960954
178	0xbcec2a4c	-0.028828762
179	0xbcb81df5	-0.022475222
180	0xbcbd28f4	-0.023090817
181	0x3cbf2668	0.023333743
182	0xbd90af83	-0.07064726
183	0xbd3d160c	-0.046163604
184	0xbbc19288	-0.0059073605
185	0x3d31d00e	0.043411307
186	0xbd162574	-0.03665681
187	0x3bf96ba2	0.007611708
188	0x3d1e8bde	0.038707606
189	0xba307e83	-0.0006732719
190	0x3d734760	0.05939424
191	0x3c913978	0.017727599
192	0xbbf088ae	-0.0073405122
193	0xbb62b7cd	-0.0034594417
194	0x3d1c3589	0.038136993
195	0x3d354d70	0.044263303
196	0xbbdf482e	-0.0068140244
197	0x3d15e1f5	0.036592443
198	0xbd45b285	-0.048265953
199	0xbc59b9f1	-0.013288961
200	0x3d18a023	0.037262093
201	0xbc1a0d83	-0.0094026355
202	0x3c7ab583	0.015302065
203	0xbd41578e	-0.04720264
204	0x3cede8d1	0.02904168
205	0xbcb5a4cf	-0.022173313
206	0xbd2a4af0	-0.041575372
207	0xbc535d51	-0.012900666
208	0x3d048b8e	0.032359652
209	0xbc8edacc	-0.017438315
210	0x3d6273aa	0.055286087
211	0x3c9cd7ca	0.019145865
212	0xbd082248	-0.03323582
213	0x3c8ce638	0.01719962
214	0x3c826b4e	0.015920307
215	0xbc2c6a37	-0.0105233705
216	0x3cb0810f	0.021545915
217	0x3d3d6557	0.046239223
218	0x3d30e78f	0.04318958
219	0xbd376e27	-0.044782784
220	0xbd2cc9ab	-0.042184513
221	0xbbaba88e	-0.005238599
222	0x3cc60e96	0.024176877
223	0xbd52d89e	-0.051476113
224	0x3ba6991c	0.00508417
225	0x3cfe1da3	0.031019991
226	0xbca8b4dd	-0.020594055
227	0xbc353404	-0.011059765
228	0xbcd933bd	-0.026513929
229	0xbd7c404a	-0.06158475
230	0x3ca376a8	0.01995404
231	0x3aa5e0fc	0.0012655552
232	0xbba3781f	-0.004988685
233	0x3cdba7c4	0.026813395
234	0x3d04348e	0.032276683
235	0x3cbc47d4	0.02298347
236	0x3d7176a9	0.058951054
237	0x3d1bc547	0.038029935
238	0x3d771b2d	0.06032865
239	0x3c83c8bc	0.016086929
240	0xbb91de51	-0.004451551
241	0x3d4483c8	0.04797724
242	0x3a266286	0.00063470786
243	0xbcd989e3	-0.026555007
244	0xbd322f18	-0.043501943
245	0xbd7e6e91	-0.062117163
246	0xbd5d7a9b	-0.054072004
247	0xbd10a19d	-0.035310376
248	0x3d51eaf4	0.05124946
249	0xbbf81c54	-0.0075717364
250	0x3b1e24f7	0.002413092
251	0x3d21fa31	0.03954524
252	0xbd2fdc3a	-0.042934634
253	0x3cd48feb	0.025947532
254	0x3cf9d88c	0.030498765
255	0xb8cb85c1	-9.704708e-05

module.rppg_feature_extractor.FeatureExtractor.6.conv_block_3d.0.weight f4 [16, 16, 3, 3, 3]
0	0xbc6db129	-0.01450757
1	0x3bb63341	0.005560309
2	0xbd2ce252	-0.042208023
3	0xbd4d420c	-0.050111815
4	0xbb6769d6	-0.0035310886
5	0x3d319abc	0.043360457
6	0xbce7e0cc	-0.028305434
7	0x3d2797c5	0.040916223
8	0xbd3356b7	-0.04378387
9	0xbd1039b9	-0.0352113
10	0xbd2c803e	-0.04211449
11	0x3d1b0b25	0.037852425
12	0x3d0cbdf2	0.034360833
13	0xbc618cf5	-0.013766517
14	0xbd162cbf	-0.036663767
15	0xbd5d2ecf	-0.05399972
16	0xbcf4f73f	-0.029903052
17	0xbc5f62be	-0.013634382
18	0x3bdca49f	0.0067334916
19	0xbcdf4efa	-0.027259339
20	0xbb9e30d9	-0.0048276004
21	0x3d1ec7bb	0.038764697
22	0x3b70aad9	0.0036722927
23	0x3bac0fd5	0.0052509108
24	0x3d00e4d3	0.031468224
25	0x3cabc01d	0.02096563
26	0x3d49eabc	0.049296126
27	0x3cf61ae6	0.030042123
28	0xbc6da2d2	-0.014504151
29	0x3bdff5dc	0.0068347286
30	0xbcceae2d	-0.025229538
31	0xbc94d618	-0.018168494
32	0x3bd0a84e	0.0063677197
33	0xbd38d9b8	-0.045129508
34	0xbd13e441	-0.03610635
35	0x3adcbf7e	0.0016841737
36	0xbc1ec725	-0.009691034
37	0xbc93fbae	-0.018064346
38	0x3c5af0d8	0.013363086
39	0xbd279acd	-0.040919114
40	0xbccf96c2	-0.025340442
41	0xbb336b1c	-0.0027377075
42	0xbc482624	-0.012216125
43	0x3d4e33d3	0.050342392
44	0x3ca48b96	0.020086091
45	0xbc0d6a1e	-0.008631257
46	0x3cda52d2	0.02665082
47	0x38b97bb7	8.844531e-05
48	0xb7d457b5	-2.5313211e-05
49	0x3d43278e	0.047645144
50	0xbd25cf90	-0.04048115
51	0x3d1cade4	0.038251773
52	0xbcc16cbc	-0.023611419
53	0x3d1c4264	0.038149253
54	0xbd5611b5	-0.05226298
55	0xbccdd9f4	-0.025128342
56	0xbd76a0c5	-0.060211916
57	0x3bb18b31	0.0054182042
58	0x3ce85dd5	0.028365055
59	0x3c2ef977	0.010679594
60	0xbcd1fa49	-0.02563204
61	0xbc213314	-0.009838838
62	0x3b74c89e	0.0037351022
63	0x3bd975ea	0.006636371
64	0x3d1a5bdb	0.037685256
65	0xbd55761c	-0.05211459
66	0xbc2ba463	-0.010476205
67	0x3d15013c	0.03637813
68	0x3c7d1b3a	0.015448386
69	0xbd233f1c	-0.039855108
70	0x3d4ea153	0.05044682
71	0xbc9dd60d	-0.019267106
72	0xbd413383	-0.047168266
73	0x3c6121e6	0.013740992
74	0xbd5082e5	-0.05090608
75	0x3d6818f5	0.056664426
76	0xbc6ee7ca	-0.01458163
77	0x3c93e0e9	0.018051581
78	0x3d394473	0.045231294
79	0xbcc4edc1	-0.024039151
80	0xbc935eda	-0.017989565
81	0xbd65961a	-0.05605135
82	0x3c65491e	0.013994483
83	0xbcfd46a1	-0.030917468
84	0xbc85d3bf	-0.01633632
85	0xbc537c65	-0.012908076
86	0x3cf9c25e	0.03048819
87	0x3d29dfbc	0.041473135
88	0x3cf2ef60	0.029655159
89	0x3d5e196d	0.054223467
90	0x3c589d3d	0.013221082
91	0x3d2d8af9	0.042368863
92	0x3d397055	0.045273144
93	0x3c7c8c39	0.015414291
94	0x3d09eaa1	0.033671025
95	0x3d007d26	0.03136935
96	0x3cb5f19c	0.022209935
97	0xbb1146e9	-0.002216751
98	0x3bd0682b	0.006360074
99	0x3d1d8534	0.03845711
100	0xbc569874	-0.013097871
101	0xbcaec07f	-0.021332024
102	0x3c0f64ca	0.008752057
103	0x3d11ea4b	0.03562383
104	0xbc36eaed	-0.011164409
105	0xbd34f2e8	-0.044176966
106	0x3cdf3f2c	0.027251802
107	0xbcf670d6	-0.030083101
108	0x3c2e5ad4	0.010641772
109	0xbcabc892	-0.020969663
110	0xbd67b8f6	-0.056572877
111	0xbd8255fa	-0.06364055
112	0x3b445b9d	0.0029961832
113	0x3ccbd659	0.024882482
114	0x3c706b63	0.0146740405
115	0x3c9889e1	0.018620433
116	0xbbc2461e	-0.005928769
117	0xbd2e9170	-0.04261917
118	0xbd7906f3	-0.060797643
119	0x3cf16724	0.029468127
120	0xbd636408	-0.05551532
121	0xbc08ddb3	-0.008353638
122	0x3d30f1fc	0.043199524
123	0x3d365d5f	0.04452264
124	0xbc8beb6b	-0.01708003
125	0xbbd74147	-0.006569061
126	0x3d401bd9	0.046901558
127	0xbc38ccba	-0.011279279
128	0xbcbbff22	-0.022948805
129	0x3a7d1e73	0.00096557214
130	0x3b18cebf	0.002331659
131	0x3cc56ec0	0.024100661
132	0xbcd09f34	-0.025466539
133	0x3d207b2d	0.03917997
134	0x3d55683f	0.05210137
135	0x3c442dfb	0.011973853
136	0xbd383663	-0.044973742
137	0x3d15c2af	0.036562618
138	0xbc9ded0e	-0.019278076
139	0xbd395b92	-0.045253344
140	0xbb908231	-0.0044100513
141	0xbd37c95c	-0.044869766
142	0x3d12ca11	0.035837237
143	0xbd5a65a7	-0.0533196
144	0xbc00ff0d	-0.007873309
145	0xbbc6f8b5	-0.0060721287
146	0xbca20715	-0.019778768
147	0xbc66cc68	-0.01408682
148	0xbc35f8f4	-0.011106718
149	0xbd327506	-0.043568633
150	0x3d293b52	0.041316338
151	0x3cfc965f	0.030833421
152	0x3cc16e28	0.023612097
153	0xbb56dd50	-0.003278572
154	0xbd300cca	-0.042980947
155	0xbd101f85	-0.03518631
156	0xbcad6cf3	-0.021170115
157	0x3cb7a18e	0.022415902
158	0xbce446b0	-0.027865738
159	0xbcca62b3	-0.024705267
160	0xbb4ab5ef	-0.0030931195
161	0x3d0fdfe2	0.03512562
162	0x3cc3b6ae	0.02389082
163	0x3d080b3f	0.03321385
164	0xbcdf15bb	-0.027232042
165	0x3d0982e3	0.03357209
166	0xbca0aa54	-0.019612469
167	0xbc68b0b3	-0.014202285
168	0x3d1e6831	0.038673583
169	0x3b13610c	0.0022488264
170	0xbcc79297	-0.024361892
171	0x3d4e2542	0.0503285
172	0xbd1c99b2	-0.038232513
173	0xbcae88ba	-0.02130543
174	0xbc290234	-0.010315467
175	0xbc7a0b54	-0.01526149
176	0x3cc9f51c	0.02465301
177	0x3d13706e	0.035995893
178	0xbd369dcf	-0.04458409
179	0xbcc12b62	-0.023580257
180	0x3c873d33	0.016508674
181	0xbd0ec36c	-0.034854338
182	0x3c56c3f9	0.013108247
183	0xbce4c31b	-0.027925065
184	0x3b15d947	0.0022865103
185	0xbca6c2ad	-0.0203565
186	0xbcd3cc4f	-0.025854258
187	0x3cc9d9b1	0.024639936
188	0x3d27c765	0.04096164
189	0x3d273cbd	0.04082941
190	0xbc4a2f11	-0.012340323
191	0x3d0598c4	0.03261639
192	0xbc4b195b	-0.012396182
193	0xbd52f1ce	-0.051500134
194	0x3d1a889b	0.037727933
195	0xbc1880c5	-0.009308045
196	0x3c8a09cc	0.016850375
197	0x39f477a3	0.00046628443
198	0xbd1ca22c	-0.038240597
199	0xbd7578cd	-0.059929658
200	0x3b9e4403	0.004829885
201	0xbc94802c	-0.018127523
202	0x3cc22a85	0.023701916
203	0xbd5007e2	-0.050788768
204	0xbbade829	-0.0053072167
205	0x3cf24dd3	0.029578125
206	0xbc2746b7	-0.010209731
207	0xbd0808bd	-0.03321146
208	0x3a16c2c1	0.00057510665
209	0xbcc19e6d	-0.023635114
210	0xbd4d4a8f	-0.050119933
211	0x3c2dc97f	0.010607122
212	0x3c7b5d74	0.015342105
213	0xbd2ea1ad	-0.042634655
214	0x3d0612f6	0.032732926
215	0x3cd4d517	0.025980515
216	0xbbcfa5b8	-0.006336894
217	0x3c9d4425	0.019197533
218	0xbb686d57	-0.0035465562
219	0x3d08c1e5	0.033388037
220	0x3d544b96	0.051829897
221	0x3c2dd39a	0.010609532
222	0xbce414d6	-0.027841967
223	0xbd2e1f48	-0.0425103
224	0x3cbd13b8	0.023080692
225	0x3d28c128	0.041199833
226	0xbd0346f2	-0.03205008
227	0x3d3ffe7c	0.046873555
228	0xbd278c56	-0.04090532
229	0x3c1e3b50	0.009657696
230	0x3ca442af	0.020051328
231	0xbcf67713	-0.030086076
232	0x3c3ee1a5	0.011650478
233	0x3c07d999	0.008291625
234	0x3cc1ac87	0.023641838
235	0x3cca7d69	0.024718003
236	0x3cb6333c	0.022241227
237	0x3c32d019	0.010913872
238	0xbc6e180c	-0.0145321
239	0xbc82cf78	-0.01596807
240	0xbcdf2d6b	-0.027243337
241	0xbcfa9269	-0.030587392
242	0xbca13a4a	-0.019681115
243	0xbc1525fd	-0.009103295
244	0xbcb81aa6	-0.022473644
245	0xbd06a463	-0.032871615
246	0xbcd75e95	-0.026290217
247	0xbc6c6067	-0.014427281
248	0xbd1001ca	-0.035157956
249	0xbd43e7a3	-0.047828328
250	0xbd5e40eb	-0.05426113
251	0x3d25eb59	0.04050765
252	0x3d4813cd	0.04884701
253	0x3d1998a8	0.0374991
254	0xbc9c87c8	-0.019107714
255	0x3d10e788	0.035377055

module.rppg_head.conv_block.0.conv_block_3d.0.weight f4 [16, 16, 3, 3, 3]
0	0xbd448cd7	-0.047985878
1	0xbd629822	-0.055320866
2	0xbd4157fc	-0.04720305
3	0x3c9c817d	0.019104714
4	0xbc020cf2	-0.007937657
5	0xbd22d19d	-0.039750684
6	0x3d0d5600	0.034505844
7	0xbb4518b4	-0.0030074539
8	0x3c913a6a	0.01772805
9	0xbcf6e04d	-0.030136252
10	0xbcfdb131	-0.03096828
11	0xbb77f9f8	-0.0037838202
12	0x3ca3b364	0.019983001
13	0x3c9a6342	0.018846158
14	0xbcaa910a	-0.020821113
15	0x3d55ad38	0.052167147
16	0x3d31a7f7	0.043373074
17	0xbcbd2219	-0.023087548
18	0xbd4068b1	-0.04697484
19	0xbd37dadc	-0.044886455
20	0x3b9fedd7	0.0048806476
21	0x3ba97837	0.0051718014
22	0xbcab5ab9	-0.020917283
23	0x3c131ea6	0.008979475
24	0xbb6503bf	-0.003494486
25	0x3b3d1952	0.0028854203
26	0x3ce019ac	0.027355991
27	0x3b9f952a	0.0048700767
28	0x3d1ff2c6	0.039049886
29	0xbc649833	-0.013952303
30	0xbca64e61	-0.020301046
31	0xbce59add	-0.028027946
32	0xbbebb549	-0.0071932417
33	0xbcd6c676	-0.02621768
34	0xbc840149	-0.016113894
35	0xbcdda404	-0.027055748
36	0xbd79d6e6	-0.06099596
37	0x3d2e48f7	0.042550053
38	0xbc5915de	-0.013249842
39	0x3b9df1bd	0.004820077
40	0x3c9c7f9a	0.019103814
41	0xbc31240d	-0.010811818
42	0xbcf22316	-0.029557746
43	0xbbd417f2	-0.006472581
44	0x3c05286d	0.008127314
45	0x3c04b482	0.008099677
46	0xbd1c519f	-0.038163777
47	0xbaad3342	-0.0013214129
48	0x3cdfb07f	0.02730584
49	0x3d2068b4	0.039162353
50	0x3d1a3e73	0.037657212
51	0xbcd9f12e	-0.026604261
52	0xbcea5372	-0.028604243
53	0xbca4dd47	-0.020125045
54	0x3d0e3499	0.03471813
55	0xbb8473ed	-0.0040421397
56	0xbca5d697	-0.020243926
57	0xbd0f2ea6	-0.034956597
58	0xbd04b6f9	-0.03240106
59	0xbd75f039	-0.060043547
60	0x3cc24190	0.023712903
61	0x3d4179c0	0.04723525
62	0xbcce217b	-0.02516245
63	0x3d35e3a4	0.04440655
64	0xbcf9241b	-0.030412724
65	0xbceb753c	-0.028742425
66	0xbc444794	-0.011979956
67	0xbc53fe44	-0.01293904
68	0x3c628f97	0.01382818
69	0x3d2aef5c	0.041732177
70	0xbcbc25ed	-0.022967303
71	0x3bc9ae44	0.0061548073
72	0xbc1d360b	-0.009595404
73	0x3c90fb5f	0.017697988
74	0xbc553c13	-0.013014811
75	0xbb907638	-0.004408624
76	0xbd0c6555	-0.034276325
77	0x3bee941d	0.00728084
78	0xbcab3b24	-0.020902224
79	0x3cdc4edb	0.02689307
80	0x3c378aec	0.011202555
81	0x3cf02371	0.029313775
82	0xbc4beb42	-0.012446227
83	0xbc5ea5e0	-0.013589352
84	0xbc712e84	-0.014720563
85	0x3d14b250	0.036302865
86	0xbbdf57e1	-0.006815896
87	0xbc9aa75f	-0.018878637
88	0x3c8c3d32	0.017119024
89	0x3d41ef25	0.047347207
90	0xbced5c43	-0.028974658
91	0xbc2fb910	-0.010725275
92	0x3c702193	0.014656442
93	0x3cfc105c	0.03076952
94	0x3d15f16c	0.03660719
95	0xbb6459af	-0.0034843495
96	0xbd219a56	-0.039453827
97	0xbc05a3f3	-0.008156764
98	0x3d4d77cf	0.050163087
99	0x3cd0eee9	0.025504546
100	0x3a8777ce	0.0010335387
101	0xbbc84e46	-0.0061128465
102	0x3d1a600f	0.037689265
103	0xbd165f37	-0.036711898
104	0xbbf341e5	-0.0074236267
105	0x3cd1ad2e	0.025595274
106	0xbcd8eb25	-0.026479313
107	0x3d0caea3	0.034346234
108	0xbcc099f7	-0.023510916
109	0xbd1a8652	-0.037725754
110	0x3ccdc718	0.02511935
111	0x3d38c026	0.045105122
112	0x3d00772d	0.031363655
113	0x3b1e89b1	0.0024190957
114	0xbb805652	-0.00391654
115	0x3c121b74	0.008917678
116	0x3d2c39d1	0.042047326
117	0x3cf8f63c	0.030390851
118	0x3d0c3837	0.0342333
119	0x3cf37695	0.02971963
120	0x3cdfeeb8	0.02733551
121	0x3d34aba5	0.044109005
122	0x3c8224e8	0.015886739
123	0xbcdd45ff	-0.027010916
124	0xbc506da1	-0.01272145
125	0x3d443b6f	0.047908243
126	0xbd22fc3d	-0.039791334
127	0x3ca0be7b	0.019622078
128	0xbd00fcbe	-0.031491034
129	0x3c13b3a7	0.009015
130	0xbce69abc	-0.028149955
131	0xbc00c370	-0.007859096
132	0x3bf49b73	0.00746482
133	0x3bcaa738	0.006184485
134	0x3b878b09	0.0041364473
135	0x3d3c2179	0.04593036
136	0xbd023e3d	-0.031797636
137	0xbd024679	-0.03180549
138	0x3d350eca	0.044203557
139	0x3d32e190	0.043672144
140	0xbcb70998	-0.022343442
141	0x3a17db19	0.0005792841
142	0xbca04224	-0.019562788
143	0x3ba2e5eb	0.004971256
144	0xbc84d378	-0.016214117
145	0xbc637eb9	-0.0138851935
146	0x3bc89972	0.0061218077
147	0xbc993303	-0.018701082
148	0x3b968bca	0.004594301
149	0xbcfe1799	-0.031017112
150	0x3cd154f9	0.025553213
151	0x3cd33216	0.025780719
152	0xbb09466d	-0.0020946518
153	0xbcbc71f2	-0.023003552
154	0xbd3dda8d	-0.046351004
155	0xbb921ab5	-0.00445875
156	0xbc8927ed	-0.01674267
157	0xbc231d86	-0.009955769
158	0xba828a1b	-0.0009959372
159	0x3d3666be	0.044531576
160	0x3c57292d	0.013132376
161	0xbcda724b	-0.026665827
162	0xbd01a626	-0.031652592
163	0xbcd9242e	-0.02650651
164	0x3c338f93	0.010959524
165	0xbc373013	-0.011180895
166	0xbd3aaaeb	-0.045573156
167	0xbcf660d1	-0.030075463
168	0xbbf3234d	-0.0074199797
169	0x3ce3a17b	0.02778696
170	0xbc650b1d	-0.0139797
171	0x3cb6ceae	0.02231535
172	0xbc962ff6	-0.018333416
173	0xbc6cc096	-0.014450213
174	0x3ca32918	0.019917056
175	0xbd1c1af4	-0.038111642
176	0x3d4c4f5a	0.049880363
177	0x3d08ba1e	0.03338062
178	0xbccdf72b	-0.025142273
179	0x3d10e71c	0.035376653
180	0x3d2af602	0.041738518
181	0xbc5d01cb	-0.013489197
182	0x3d57613e	0.05258297
183	0x3c7db372	0.015484678
184	0x3c44c06b	0.012008767
185	0x3c95907b	0.01825737
186	0xbcc68d61	-0.024237337
187	0x3cf989b1	0.030461164
188	0xba229b0b	-0.0006202913
189	0x3d558bc7	0.052135255
190	0x3d1e81ee	0.03869813
191	0x3b4e7a71	0.0031506086
192	0x3c866908	0.016407505
193	0xbd29473e	-0.041327707
194	0xbc400c0f	-0.011721625
195	0xbd86b1e2	-0.06576897
196	0xbd735069	-0.059402857
197	0x3caafa71	0.020871373
198	0x3d040190	0.032228053
199	0x3c2b9e97	0.0104748225
200	0x3c575278	0.013142221
201	0xbcf48098	-0.029846475
202	0xbd250dbb	-0.040296298
203	0x3c21f5e1	0.009885282
204	0xbd18c0d7	-0.03729328
205	0xbd13bd55	-0.036069233
206	0x3cf5733b	0.029962173
207	0xbcf8c59d	-0.030367667
208	0x3ab565f2	0.0013839586
209	0xbc970208	-0.018433586
210	0x3d301284	0.042986408
211	0x3d1664cf	0.036717232
212	0xbcc0926d	-0.023507321
213	0xbcac6268	-0.021043018
214	0x3d21a61c	0.039465055
215	0xbba95bad	-0.0051683993
216	0xbcdb6431	-0.026781173
217	0x3ca57975	0.020199517
218	0x3d3b0dd5	0.045667488
219	0xbd107bd1	-0.03527433
220	0x3d43f85c	0.047844276
221	0xbcb11ada	-0.02161925
222	0x3c2c972b	0.010534088
223	0xbcf62c4a	-0.030050416
224	0x3cef29fe	0.029194828
225	0x3d795989	0.060876403
226	0x3af70b89	0.0018848042
227	0xbd35bd1d	-0.044369806
228	0xbcc304e4	-0.023806043
229	0xbcce7bb4	-0.02520547
230	0xbce5762c	-0.02801045
231	0x3c0d0143	0.008606258
232	0x3d76b533	0.0602314
233	0x3900d838	0.00012287579
234	0x3c89a082	0.016800169
235	0x3d250bfa	0.040294625
236	0xbccfca4b	-0.025365015
237	0x3d2100f6	0.039307557
238	0xbce846a3	-0.028353995
239	0x3c96aeea	0.018393952
240	0x3b8fc0ba	0.0043869885
241	0x3cf6125c	0.030038051
242	0xbd0308d8	-0.031990856
243	0xbcf780af	-0.030212728
244	0x3c87f0e0	0.01659435
245	0x3bf4fe44	0.0074766
246	0x3bd20ef9	0.0064104763
247	0x3bb1c832	0.0054254765
248	0x3bc9427d	0.006141959
249	0x3cf6ccde	0.030126985
250	0xbd24e804	-0.04026033
251	0xbc17559f	-0.009236722
252	0xbcac7fb5	-0.02105699
253	0x3a8da517	0.0010806647
254	0x3c51e2d1	0.012810425
255	0xbc19ebc7	-0.009394593
